data/models/ralphi.v1.short.pt (torch, 29365 bytes, 17 tensors)

policy_graph_hap0.bias f8 [1]
000000 b1 07 e0 ff b1 ac 85 3f
       0.01058329641455544

policy_graph_hap0.weight_orig f8 [1, 264]
000000 29 13 d2 5f 64 e1 a7 bf 18 db 0a 27 e9 09 b2 3f
       -0.04664148015675657 0.07046372607406359
000010 49 e2 f7 60 19 a7 b2 3f 75 f1 62 7b 25 fa b8 3f
       0.0728622304667478 0.09756693136563917
000020 c2 aa a7 e8 dc 09 b2 3f d1 68 03 78 4b bb b1 3f
       0.07046299629261468 0.06926414184582376
000030 04 38 ec 4c 98 f0 ad bf 36 e6 4b 7a 26 b1 ac bf
       -0.05847621859548727 -0.05603904955746623
000040 4b 38 62 4e 63 33 b0 3f 01 6b 36 e3 cc 50 71 3f
       0.06328411735214094 0.004227447835911447
000050 6c 80 b4 9c 96 d7 ae bf a0 3f 6b af 31 66 ab bf
       -0.060238558415449756 -0.053514053977436804
000060 58 e3 a2 94 58 4f b2 bf 6a 89 31 64 88 9b ac bf
       -0.07152322415175882 -0.055874120932247376
000070 4f af 19 f2 54 f5 ae bf 48 51 7b a8 55 da ae 3f
       -0.06046548323942479 0.06025951081906783
000080 73 c6 6a 4c 5f 4b a0 bf ca 05 b2 45 ff e5 b0 3f
       -0.031825044706590776 0.06600947810695526
000090 43 e5 23 2f 64 60 a9 3f d3 6f 20 cf a8 2a 88 bf
       0.0495635325950823 -0.011800116368298951
0000a0 a2 9a 85 c2 e2 30 a4 bf f8 9f 52 c6 c2 37 b7 3f
       -0.039435468907688134 0.09069459287513826
0000b0 d5 9c e2 80 86 50 af 3f 51 e4 0a 8a d9 8a b2 3f
       0.061161235077912636 0.07243117923907617
0000c0 0e c5 6c 2b 1c 6a b3 3f ae b4 bf 57 1f 94 ad 3f
       0.0758378606813219 0.05777070947792971
0000d0 38 ac 90 79 69 51 af 3f 57 e0 64 7c 3f ad b2 3f
       0.06116799935292544 0.07295605456317965
0000e0 e8 be 31 8f f1 e2 a1 3f d1 d3 e3 f1 88 b0 a6 bf
       0.034934567193770694 -0.0443156047130412
0000f0 32 67 d1 c3 82 b2 b4 3f 1b ec 4e f4 02 fd a8 3f
       0.08084885864937233 0.04880532486227925
000100 eb 34 72 cd 46 41 b2 3f 5e 69 85 6e da 55 a8 3f
       0.07130854144834912 0.047530008307790736
000110 60 d3 8a 77 99 f9 b0 3f 1b 2e 94 23 b6 b2 9e 3f
       0.06630858582032095 0.029978605195578916
000120 e9 d5 82 cc 63 6f ab 3f 29 f3 b3 55 85 01 a5 bf
       0.05358421203110792 -0.041027228080542884
000130 b0 c0 4e 47 e3 da ad bf 3f df 04 e3 09 d1 97 3f
       -0.05831060643629493 0.023258356553213174
000140 3f 6e cf 88 c5 e4 af bf cd 1a ca 56 a6 c4 ab bf
       -0.06229226393744768 -0.05423469361726561
000150 24 bc da 85 8b a9 a4 bf 6e 87 fd 89 39 60 b4 3f
       -0.04035602578130007 0.07959327334313368
000160 f2 a9 9e 40 c4 b5 b2 bf 8c 6c 9a 6d 3b f3 a1 3f
       -0.0730860383761536 0.03505883896760861
000170 57 1b cb 25 6c c5 ae 3f af 21 35 fb 43 c5 ad 3f
       0.060099963773203306 0.05814564172266345
000180 25 ff 17 9d b0 7b 93 bf 53 27 2d ff 4c 74 b2 bf
       -0.019026527012100964 -0.07208710889713403
000190 f4 00 41 ba 51 88 9d bf 5d 2c d8 d6 86 02 b3 3f
       -0.028840329163586767 0.07425730462289111
0001a0 da b7 64 4c 92 35 ad bf 26 04 71 43 ea 69 ad 3f
       -0.05704934294259063 0.05744869302044035
0001b0 5b 0c db c1 e3 1a 9c bf 1e cb d3 93 87 23 a9 bf
       -0.02744632597638162 -0.0490991943314809
0001c0 07 48 8a c7 1c 4a b6 3f 7b 76 4b 79 f8 06 a8 bf
       0.08706836577974296 -0.046928181463710104
0001d0 4c ea ff 15 24 81 a8 3f be ad 07 ea 21 46 65 3f
       0.047860267339235735 0.0025969183336564663
0001e0 a6 6c 3a 7d f6 44 a0 bf ce d4 0f 0e 63 e7 9d 3f
       -0.031776144777915946 0.029202983601824432
0001f0 e9 54 71 b5 b2 af a7 3f c9 92 d4 3e ef d0 b5 3f
       0.04626234497906429 0.08521933826393559
000200 97 f1 77 63 1e 2b a6 bf 74 21 ca 6f de 82 b2 3f
       -0.043297719614176326 0.07230940083730336
000210 23 18 90 71 ce cc a9 bf 2a d7 46 8b 86 ac aa 3f
       -0.050390673983244726 0.05209751558451921
000220 ad 2c e5 a3 32 7c aa bf 7a 66 f3 da 63 17 b6 3f
       -0.051728804117908346 0.08629440398672186
000230 90 6c 0b d9 8e 8a b0 bf e9 ca b3 ea 15 7c a0 bf
       -0.06461422728482291 -0.032196698093590666
000240 d9 30 d8 3c 32 49 b0 3f e1 66 ec 41 25 2c ac 3f
       0.06361688600026429 0.05502430371980239
000250 7c 4d 8e 9d 3f 5e af 3f ba 65 b2 91 42 c0 b4 3f
       0.061265933974165215 0.08105865532924997
000260 4f d4 c3 ba cf ef b2 bf 97 39 c9 73 e0 34 aa bf
       -0.07397173223201146 -0.05118466771510837
000270 c6 99 f3 0c 37 9c af bf 05 c8 1c 7b bc 51 b4 3f
       -0.06173870118236695 0.0793721962516259
000280 10 9e 83 0b 7b 35 ad bf d5 1a d4 e9 78 7a b9 bf
       -0.057048649936231155 -0.09952502926544622
000290 95 9a d0 15 2f 49 b1 bf 0b 0d 33 8b cf 27 a4 3f
       -0.06752294809903454 0.03936623167239802
0002a0 5a 26 66 0d 4a f1 a9 bf 85 99 35 ad d7 6c b6 3f
       -0.05066901601373948 0.08759830454582669
0002b0 dd c9 4f 9a 31 fb a7 bf 16 4c 43 2b 83 8f b5 3f
       -0.04683833130538393 0.08422107511732721
0002c0 01 fa c8 96 fc fe 98 bf fb ce 8d b2 9e 23 a0 3f
       -0.02441019697493552 0.03152175836194534
0002d0 ca 64 4a 13 8f e6 ae 3f c1 6a 7c e3 8c 00 b0 bf
       0.060352774720010396 -0.06250839761598127
0002e0 d6 dd 2f cd 5e e8 b3 3f f3 87 44 ea 97 eb b7 bf
       0.0777644396729252 -0.09343862027574783
0002f0 be 5d 5d da 4c c5 af 3f bb 33 4a 2b 92 bb b0 bf
       0.062052156120155896 -0.06536210591202878
000300 48 3e 58 2f 46 6b a6 bf 5f 1c f6 2b 1a 5e b4 3f
       -0.043787186889059415 0.07956088612819333
000310 b3 ed 07 25 9d d9 b3 3f 58 79 ca 98 a1 60 aa bf
       0.07753927377773699 -0.05151848783610785
000320 97 82 0c d3 c5 5b 6b 3f 53 86 38 05 06 68 b2 bf
       0.0033396590955734984 -0.07189977290593079
000330 e9 3a cb 6a 4f b3 b1 3f f0 cf 33 dc 90 1a 8e 3f
       0.0691423068740097 0.014699107856792154
000340 cc 5c 8d 76 11 8d a9 bf 30 93 07 e2 25 9e ae 3f
       -0.04990439006967903 0.05980032333517327
000350 dd 17 64 e4 86 ab b2 3f e6 1c 20 39 af bb ac 3f
       0.0729297931285084 0.05611941883403819
000360 c5 e2 b1 fd 74 8f b5 3f a6 44 9d eb fa fd b2 3f
       0.0842202300426705 0.07418792965224216
000370 ca 56 fe f8 a3 2c 96 3f 8e 31 41 f1 41 19 b7 3f
       0.021654665062292 0.09022915019995123
000380 7d f0 2a 1d af d8 b4 3f 0e 91 8c 1b 52 ff b3 bf
       0.08143133604147752 -0.07811463520608106
000390 ac 84 fc a3 0d b0 ae 3f 17 72 23 65 a2 e5 ac bf
       0.0599369299582205 -0.05643947109794938
0003a0 e0 6f 54 9c ab 23 a4 bf 3a 4c aa 66 7d 4f b2 3f
       -0.03933464320490976 0.07152541882014499
0003b0 e0 36 dd 37 3a 2b b2 bf bf be f2 cd f0 8f b3 bf
       -0.07097209800596316 -0.07641510990174093
0003c0 f9 f0 ef 48 1b be 9e bf f9 d8 53 5d 5f 9d b1 bf
       -0.030022074057328905 -0.06880756405357492
0003d0 7b bc 2f 42 11 87 b1 3f 3a 1a cf cb e7 25 ab 3f
       0.06846721521263703 0.05302357066061743
0003e0 57 a7 a2 1d 67 5c aa 3f 6c 18 77 71 d4 8d ad bf
       0.05148622738609159 -0.057722700930342125
0003f0 d7 59 cf 06 66 d1 87 3f 94 95 c0 da 62 4e af bf
       0.011629864771674754 -0.06114491386714885
000400 4c a9 39 65 32 05 af bf fa cc 86 d1 f7 fe ae bf
       -0.06058652387294447 -0.06053900177666978
000410 8e 3a 7f a5 b4 21 a3 bf 28 4d b0 71 3a 52 ab bf
       -0.037366528703946064 -0.053361727121364944
000420 d0 1d 5a c4 19 2b ba 3f 03 56 60 52 59 2c ae 3f
       0.10222016376257348 0.05893210535593243
000430 84 6f 7e 92 83 5f b2 3f 2c 03 d0 50 2b 15 ab bf
       0.07176992727766957 -0.05289588319283775
000440 a4 7b ae 83 54 b3 af 3f b4 63 a6 59 47 14 b4 3f
       0.061915055345927145 0.07843442858428668
000450 28 08 ec 00 51 b9 ad 3f 2a de 1b 56 5b 81 91 3f
       0.05805447708372952 0.017095019465129514
000460 b6 d2 20 d9 82 41 b8 bf c6 7e ab 25 02 80 97 bf
       -0.0947496204469854 -0.022949250744999337
000470 ee 1d 72 c5 b0 1d a7 bf d9 bb 4a 02 36 78 b4 3f
       -0.04514839563585925 0.07995927387194914
000480 39 d6 e8 9f 46 b7 b4 3f 03 1d d9 23 ae 65 83 bf
       0.08092156795540796 -0.00947128340625492
000490 5a d1 7d 36 97 72 ae bf 69 b8 7c 22 64 76 b2 3f
       -0.05946800747088572 0.07211900560352692
0004a0 27 ee cf 66 a8 e8 96 bf 14 5c dd 75 a0 ae a1 bf
       -0.022371894145164852 -0.03453542174127491
0004b0 c9 42 a2 bc 45 95 a8 bf fd 12 62 f5 01 6e ad bf
       -0.04801385810526921 -0.057479916767112706
0004c0 a7 71 7d 15 26 1d b4 3f 5a 84 85 d5 24 32 b9 bf
       0.0785697748628481 -0.09842138493469701
0004d0 6f 17 0a 5c f3 f2 a9 bf d8 28 ac df 10 ca 9d 3f
       -0.05068169115570142 0.029091132785688284
0004e0 39 28 d3 9e 1f b3 aa bf a1 a4 00 16 4e aa a6 3f
       -0.05214785398273176 0.04426807421288826
0004f0 1e 9d 93 18 92 fd a2 bf 96 ef 8f 67 be 7a b0 3f
       -0.037090840816569534 0.06437292126059754
000500 b4 53 c2 85 47 00 a6 3f 65 eb e1 81 c1 d8 ae 3f
       0.042970881536497 0.06024746618728364
000510 ad be c3 3f bc 5c a9 bf 60 03 ba 32 5f 3a b1 bf
       -0.0495356395566636 -0.06729693401758885
000520 67 e8 98 8d 38 cd b2 bf 35 56 42 de 21 bc af bf
       -0.07344392258610953 -0.0619822105228817
000530 e3 6e 6b 79 4d 00 ae bf 86 4c e3 75 96 3a b7 3f
       -0.058596058913932735 0.09073772791025378
000540 8d 1a 24 1b b4 fb a5 3f 81 f8 42 9e df a2 a2 bf
       0.04293597060500529 -0.03639887625603056
000550 c9 0c d7 95 b6 e6 b0 bf f5 d2 cf b9 6d 6b 9a 3f
       -0.06602040441707681 0.02580043264966299
000560 79 d9 44 81 e4 73 9f bf 58 05 8a 1a 2a b0 a2 bf
       -0.030715532674741895 -0.03650027822460328
000570 d2 2c 25 1e 42 40 b1 3f ff 40 57 8c d3 8d ac 3f
       0.06738675342528502 0.055769549256753585
000580 33 eb 4d 01 6e 80 b6 bf cf 3a 2f 53 b9 9b b3 3f
       -0.08789718181462262 0.07659490853186955
000590 d6 97 2f df 68 69 b5 bf 51 9a 4d 68 cb c2 a1 bf
       -0.08363967369913836 -0.03468928955299034
0005a0 94 50 42 ac c3 2d ac bf 5e 76 71 9d f0 fe ad bf
       -0.055036654260363665 -0.05858566209711279
0005b0 2d d6 7f 5b 36 67 ba 3f 4e 67 43 c1 4c 6c ae bf
       0.10313739522811068 -0.059420012084685156
0005c0 78 1b ee 9c 52 4f b3 bf 6f a0 07 37 5b 6e b0 3f
       -0.07542911845494682 0.0641839036321714
0005d0 d9 a5 ef 48 e4 44 b4 3f 3d 36 07 24 aa cb a5 bf
       0.07917620449702358 -0.04256946267888082
0005e0 0f 2d f0 9e 51 c7 a4 bf c1 a4 77 9a 35 37 b1 3f
       -0.040583182002672406 0.06724867840934491
0005f0 c0 d2 57 d6 95 df b0 3f f1 81 ac 2f e1 a0 b3 bf
       0.06591164095864155 -0.07667357839500945
000600 08 8e 55 db d8 e0 88 bf 11 c9 58 45 3c dd aa 3f
       -0.012147611802624261 0.05246914240378165
000610 b7 fe fe 9c 7c fa b3 3f 4a 76 ec 73 e1 c7 ad 3f
       0.07804087479507414 0.05816559352954849
000620 77 ab 44 3a 65 d7 b2 bf 07 36 45 0b 71 69 b0 3f
       -0.07359917328419195 0.06410891080050628
000630 17 e1 53 80 86 e7 b1 3f c9 86 02 fa 6b c1 af bf
       0.06993904717444753 -0.06202256609800611
000640 a7 6b ff b9 64 f0 a9 bf 93 28 94 e7 e9 cc b0 3f
       -0.05066218157272511 0.06562673476961071
000650 e9 3f d7 9f 60 c1 a2 bf 58 92 56 32 ed 62 b2 3f
       -0.03663160277540085 0.07182199934920541
000660 f3 db d7 8e 52 e7 8d bf 0b 31 9a 0e 62 35 9d bf
       -0.014601368889072907 -0.02852395261884148
000670 a1 4f 9e 1b c9 9a a3 bf 93 1d 18 d4 0d 73 af bf
       -0.03829029523981765 -0.06142466749229949
000680 14 e8 f0 60 53 a9 a8 bf e1 3c ac b7 7b eb 8a bf
       -0.04816685255396194 -0.013144461195706504
000690 6e df 71 47 d0 42 b2 3f 51 5b 9c 1c be eb a5 3f
       0.07133199447878066 0.04281419848682922
0006a0 68 83 aa 93 a8 32 ad 3f 8b 71 d8 1b c1 25 a7 3f
       0.057027118707316415 0.045209917687517885
0006b0 81 c8 d5 23 a6 1f ad 3f 51 5c 35 9a eb 56 ac 3f
       0.056882087587738724 0.055350649427673766
0006c0 5f 42 ff 9e cf 67 b4 bf f7 08 c3 fe 28 0f b1 3f
       -0.07970903045430465 0.06663757533809532
0006d0 b0 e0 08 0a ab 62 a9 bf 04 6e 39 a0 93 09 b2 3f
       -0.04958090302938112 0.07045862828947952
0006e0 ef 25 cd f3 84 ac b0 3f 48 77 34 d3 ca 8c b0 3f
       0.06513243629628794 0.06464831978197794
0006f0 fc 26 af ef 18 86 a0 bf da 0f 84 04 70 7c a9 3f
       -0.03227308202583676 0.04977750830769852
000700 49 4d c0 ef f6 0e b2 3f 7a 99 e9 ec 10 3d a6 bf
       0.07054084161091113 -0.043434647483809166
000710 91 8d cd c8 2b a8 9f 3f 43 09 48 53 b9 68 ac 3f
       0.030914959078825858 0.0554864801561217
000720 20 0e 52 b7 3f 6c b0 bf 48 43 e3 e5 3a 72 b3 3f
       -0.06415174699400739 0.0759617625474337
000730 94 99 a3 45 66 89 b3 3f 5f 95 08 95 53 57 b5 3f
       0.07631529998943726 0.08336374653352639
000740 1f ee 90 4c bf 78 a0 3f 88 58 d5 d9 8c 5d 80 3f
       0.032171228500797115 0.007990932843920953
000750 bd b3 1c ee 58 77 a6 bf 83 84 6d 73 4c 26 b1 3f
       -0.04387929827348767 0.06699064081250765
000760 6b d8 bc 89 86 b9 af bf 6d db d5 16 a2 a1 a9 3f
       -0.06196232253425723 0.0500612881541461
000770 da 19 f9 60 5d 6a a7 bf 9f fb 85 29 8e c8 b0 3f
       -0.04573337372544346 0.06556023133997123
000780 0f 03 0a 7f cd 28 b7 bf d0 89 78 25 52 fa b5 3f
       -0.09046635009327651 0.08585084357085937
000790 4e 5c f4 45 f2 d5 98 bf b9 51 fa 22 65 b3 b0 bf
       -0.0242536406704768 -0.06523735145521571
0007a0 34 7e 98 f0 ac 10 a7 bf e9 2e 77 09 e8 00 b0 bf
       -0.0450490993209737 -0.06251383048146021
0007b0 f4 9e fc 91 68 55 af bf e8 04 59 f3 b2 82 a8 bf
       -0.061198489971784925 -0.04787215443185194
0007c0 26 18 07 61 88 9b b0 3f 0e be 44 30 93 a4 a9 bf
       0.06487324112740164 -0.050083732263711864
0007d0 0f 7b 59 94 9a 4d b1 bf c5 31 3a b5 43 bf 9b 3f
       -0.06759039041342539 0.027096803604352866
0007e0 3b b1 26 00 b0 f9 b3 bf 7d b2 ad 3e 1e 2a b1 3f
       -0.07802867892923342 0.06704892187344487
0007f0 7b 12 fd cb 88 94 b2 3f de ee 56 14 58 c9 a6 bf
       0.07257895450772793 -0.04450488327299039

policy_graph_hap0.weight_u f8 [1]
000000 00 00 00 00 00 00 f0 3f
       1.0

policy_graph_hap0.weight_v f8 [264]
000000 c4 bc 58 cd 51 47 a8 bf ff 0e 9f 1c f6 56 b2 3f
       -0.04741912490532621 0.0716394252659107
000010 cb a3 14 80 f7 f6 b2 3f bc d8 70 fa 07 65 b9 3f
       0.07408091427772871 0.09919786323812024
000020 45 58 e3 c8 e5 56 b2 3f 76 0b 4e 88 04 07 b2 3f
       0.07163845209592619 0.07041958167796544
000030 0f 4d 8e 24 4d 70 ae bf 71 ba 31 5b 8f 2b ad bf
       -0.059450541221986446 -0.05697296131335328
000040 2a 9a a7 29 7f 78 b0 3f 3b 54 1f 6c e7 97 71 3f
       0.06433863417587618 0.004295257562223982
000050 fe 91 cb 40 21 5b af bf 02 20 56 31 0f db ab bf
       -0.06124214092213619 -0.054405665180695464
000060 a5 91 23 26 77 9d b2 bf 5c 45 47 be 99 15 ad bf
       -0.07271523171545498 -0.05680542419180298
000070 9d cb 84 6e 60 79 af bf 24 1c 8c a3 fd 5d af 3f
       -0.06147290562730421 0.06126396771838241
000080 e0 26 6a 9c 41 91 a0 bf 58 86 66 86 2c 2e b1 3f
       -0.03235821756704893 0.06711080819379711
000090 3d 35 59 5b 28 cd a9 3f a9 c3 fb fd d8 90 88 bf
       0.05039335360616313 -0.011995024920425328
0000a0 d6 0a d6 ce 32 87 a4 bf 89 46 39 ea 20 9b b7 3f
       -0.04009398245672961 0.09221082418778272
0000b0 13 e3 e2 32 3f d6 af 3f b1 28 1b e5 ed d9 b2 3f
       0.06218144889994028 0.07363783687029259
0000c0 5c 8e 81 81 05 bd b3 3f 73 9a 1a e5 6c 12 ae 3f
       0.07710298930901999 0.05873432442358686
0000d0 82 b6 95 14 ee d6 af 3f 6c fc 1b d4 05 fd b2 3f
       0.06218666077880376 0.07417332104158597
0000e0 e2 fa e7 e2 6e 2f a2 3f 67 d0 21 ec 56 11 a7 bf
       0.035518136213786425 -0.0450541651961494
0000f0 23 25 0a e1 d5 0a b5 3f 5e 77 0f 9d 7f 67 a9 3f
       0.08219658607608386 0.04961775581590076
000100 aa a9 ac 00 32 8f b2 3f 04 1a 51 bd 8a bd a8 3f
       0.07249748722521213 0.048321090326272326
000110 78 fc 7d 14 fa 41 b1 3f 64 19 8a 5b cf 35 9f 3f
       0.06741297722145301 0.030478706323742513
000120 06 1b 68 52 ef e4 ab 3f 93 fc 34 e3 3e 5b a5 bf
       0.05448100930157378 -0.041711774096705366
000130 93 2a 73 5e 40 5a ae bf 4b f2 be ad 71 37 98 3f
       -0.05928231385185714 0.023649002294165816
000140 09 8c 55 90 6a 36 b0 bf 8b 6f bc f8 23 3b ac bf
       -0.06333032630713843 -0.055138706315317774
000150 61 42 2c 32 b7 01 a5 bf 74 12 16 80 3d b7 b4 3f
       -0.041028714060421086 0.08092102410416563
000160 f4 77 64 9b 96 05 b3 bf 77 31 67 ca af 3f a2 3f
       -0.0743040208221542 0.03564214082470845
000170 8a 39 53 ef 3b 49 af 3f 37 01 90 87 68 44 ae 3f
       0.06110560699891028 0.059115664051207543
000180 48 10 b8 d5 9b cf 93 bf 90 6b 02 bb 06 c3 b2 bf
       -0.019346651954052413 -0.07328836503658764
000190 f5 5c f8 4e fe 06 9e bf b8 ce bb 70 9b 53 b3 3f
       -0.029323552675205772 0.0754944944599697
0001a0 9b 1f 84 14 2c b2 ad bf d0 b9 7c 8a 88 e7 ad 3f
       -0.05799997091713679 0.05840708437459663
0001b0 c2 38 6d 0c 5c 93 9c bf ba 04 0d eb c0 8e a9 bf
       -0.02790588212820278 -0.04991724843285668
0001c0 4a 8e 2e 08 43 a9 b6 3f 5a a9 c6 db 88 6d a8 bf
       0.08852023076774987 -0.04771068270504726
0001d0 8f 96 25 da 2b ea a8 3f 82 bc b0 70 55 9c 65 3f
       0.04866158521580843 0.0026380223039477744
0001e0 c5 0c ad 6b a7 8a a0 bf ef a4 c7 cc 98 66 9e 3f
       -0.032307845968284656 0.029688251017351893
0001f0 66 39 bb 47 3d 15 a8 3f d9 1b 5f 5e 52 2e b6 3f
       0.047037043577449464 0.08664431385032802
000200 3e e4 fe 65 b1 89 a6 bf 80 f2 73 7c 1f d2 b2 3f
       -0.04401926393570264 0.07351872242356627
000210 49 e7 d8 47 d9 3a aa bf c6 39 9e e1 39 1e ab 3f
       -0.05123023035089475 0.05296498183371372
000220 4c 6d d9 a8 29 ed aa bf cc ed 3a b4 cb 75 b6 3f
       -0.05259065805577254 0.08773492002631328
000230 dd eb f2 7b 1c d1 b0 bf b3 d0 e0 d4 b9 c2 a0 bf
       -0.06569078470322105 -0.03273564075098658
000240 37 57 9b 93 d4 8e b0 3f 32 5c 18 e7 45 a4 ac 3f
       0.06467941859895353 0.0559408039663868
000250 02 35 98 36 2d e4 af 3f 37 b1 b4 42 e6 18 b5 3f
       0.06228772441327558 0.08241118553695946
000260 43 7b 3a 35 98 40 b3 bf 45 19 dc fa a6 a4 aa bf
       -0.07520438479921858 -0.05203744709256112
000270 a5 66 d0 0d 82 11 b0 bf d4 00 cc 18 b9 a8 b4 3f
       -0.06276715123422123 0.08069950919525876
000280 86 6f f7 e0 10 b2 ad bf ca 10 90 d8 38 e7 b9 bf
       -0.05799916025327349 -0.10118441855599083
000290 9f bd c5 d8 ed 92 b1 bf d3 ff 33 f1 42 7e a4 3f
       -0.06864820997519992 0.0400257987439542
0002a0 6c 30 57 d3 ec 5f aa bf b1 81 63 e1 8e cc b6 3f
       -0.051513100431834186 0.08905880930570366
0002b0 6c 21 18 52 7c 61 a8 bf d4 26 fb 10 b7 eb b5 3f
       -0.04761875631453702 0.08562797703339281
0002c0 f7 8a 80 76 c5 69 99 bf 6b 5f 31 19 e9 68 a0 3f
       -0.024817548139377057 0.032050403905201495
0002d0 cb c9 94 04 74 6a af 3f da 24 31 81 ce 44 b0 bf
       0.061359048423031824 -0.06354990629292293
0002e0 29 6c a4 57 49 3d b4 3f 34 06 92 bb ad 51 b8 bf
       0.0790601576776885 -0.09499631718974727
0002f0 12 a7 fd e0 80 26 b0 3f 4b ac e2 11 f8 02 b1 bf
       0.06308751576366614 -0.06645155369430815
000300 9c 80 44 ec f3 ca a6 bf ed af de 49 1c b5 b4 3f
       -0.04451715716481994 0.08088852694953604
000310 af 78 3f 5b 4a 2e b4 3f f4 df d0 f6 22 d1 aa bf
       0.07883133628590387 -0.05237683546914687
000320 eb 95 02 c4 46 ce 6b 3f 51 02 1f 9a 8a b6 b2 bf
       0.00339425870341147 -0.07309786093447569
000330 86 c2 34 da cc fe b1 3f 81 e2 ed fd 10 9c 8e 3f
       0.0702941925744743 0.014946110486321775
000340 7e a7 0b 9e 24 fa a9 bf c8 6a 92 0e 4b 21 af 3f
       -0.05073656491533905 0.06080088189010763
000350 6e 69 14 5d 77 fb b2 3f cd 82 1a 59 c9 36 ad 3f
       0.07414957067923009 0.05705861294450685
000360 1c bd 07 07 7f eb b5 3f a6 bb 8f 77 fd 4e b3 3f
       0.0856246368564268 0.07542404335957417
000370 d3 e7 a0 05 07 8c 96 3f 25 39 e8 54 d6 7b b7 3f
       0.02201853725293985 0.09173335621764929
000380 1e d3 00 4c 9f 31 b5 3f c8 fa 09 16 a6 54 b4 bf
       0.08278842549846074 -0.07941663778363328
000390 fc 3c 3e 80 df 32 af 3f 7b 6f 61 b1 e3 60 ad bf
       0.060935005573918816 -0.05737983265200249
0003a0 eb d0 3e df c8 79 a4 bf 2f cb c4 9e e5 9d b2 3f
       -0.039991643191941005 0.07272181631269058
0003b0 d2 74 21 50 c1 78 b2 bf ff 5d d8 ac 67 e3 b3 bf
       -0.0721550770408215 -0.07768867463925487
0003c0 df 11 ae e5 61 41 9f bf 31 fd 0a f9 87 e8 b1 bf
       -0.03052285160403467 -0.06995439367436941
0003d0 ea e0 f0 71 e8 d1 b1 3f 89 51 bc 87 9f 99 ab 3f
       0.06960919172059091 0.05390642673424668
0003e0 3f a6 1b 5c c3 cc aa 3f c6 be b6 29 e0 0b ae bf
       0.0523434686600237 -0.05868435391618969
0003f0 a8 27 8e e4 de 35 88 3f 37 23 2d a2 ee d3 af bf
       0.011821500158266066 -0.06216378907863034
000400 1a 88 7b bf 8e 89 af bf 57 98 a1 c5 33 83 af bf
       -0.06159635627206246 -0.061547868609338856
000410 d0 46 07 33 80 73 a3 bf d0 5f 5b c0 cc c6 ab bf
       -0.03799057600884981 -0.05425109718424859
000420 da 07 91 d2 10 9b ba 3f 42 1a 1e fa 92 ad ae 3f
       0.1039286150053437 0.059918015510494374
000430 60 4b 9e e3 ee ad b2 3f 04 65 db 51 af 88 ab bf
       0.0729665094097931 -0.053777197592078024
000440 38 dc ad da 86 1d b0 3f 9e 26 4d f8 28 6a b4 3f
       0.06295054282041768 0.07974487363858393
000450 9d d9 2a ee 4a 38 ae 3f 76 30 a1 e8 87 cb 91 3f
       0.05902322919193923 0.01737797124251058
000460 e9 d0 eb bb 08 a9 b8 bf 01 27 c7 04 be e3 97 bf
       -0.09632925594252452 -0.023329705278036354
000470 2a 2d 64 b2 64 80 a7 bf f2 48 4f b2 8b cf b4 3f
       -0.04590143849972102 0.08129189589752508
000480 d0 c0 6b 2c f4 0f b5 3f cc c8 75 31 d0 b9 83 bf
       0.08227468571181196 -0.009631754407312697
000490 3d 08 5a c4 7b f4 ae bf f2 6b fa c2 71 c5 b2 3f
       -0.06045901080962366 0.07332526216707416
0004a0 7b f4 47 a0 e7 49 97 bf af 1f f4 01 2e fa a1 bf
       -0.022742861898212823 -0.03511184476707229
0004b0 c0 ae c8 be 2e fe a8 bf fd 28 2b 17 8d eb ad bf
       -0.04881425932793837 -0.05843773753947976
0004c0 fc 3f e4 3c 0f 73 b4 3f 6b 58 54 57 ae 9d b9 bf
       0.07988066898928986 -0.1000622714239811
0004d0 a0 07 b8 62 a2 61 aa bf c2 e4 4c 55 fc 49 9e 3f
       -0.05152614073814665 0.02957910795814623
0004e0 58 32 ff 4c 00 25 ab bf 28 57 61 5c d9 0a a7 3f
       -0.05301667156127071 0.04500464680374555
0004f0 c5 73 c4 3c c9 4e a3 bf c2 4e 49 de 08 c1 b0 3f
       -0.037710465114492865 0.06544547488129651
000500 0e a9 cc 4f 92 5e a6 3f e1 5d d9 88 e4 5c af 3f
       0.04369027351488529 0.0612555901577101
000510 d7 72 e9 e4 ea c8 a9 bf 49 1e c4 5f db 83 b1 bf
       -0.05036100429854223 -0.06841822708167301
000520 b0 0d 1f b9 6d 1d b3 bf 33 85 34 fb c0 21 b0 bf
       -0.07466779489100506 -0.06301504261911788
000530 d5 6d 43 47 54 80 ae bf c9 a8 a5 7e b3 9d b7 3f
       -0.05957282419123159 0.09225007860155467
000540 ad 8a c6 70 71 59 a6 3f 71 4a 83 76 67 f2 a2 bf
       0.04365114690451342 -0.037005646912480546
000550 e1 b9 e1 ed cd 2e b1 bf 4a 80 35 39 f7 dc 9a 3f
       -0.06712042863521318 0.0262335423152538
000560 ba 00 c9 7f cd fa 9f bf a1 ed 8d 71 fd ff a2 bf
       -0.03123017399252668 -0.037109298812505694
000570 07 29 1b 46 d3 89 b1 3f 8c 75 08 46 a2 07 ad 3f
       0.06850929700445728 0.05669886689086487
000580 bd 62 a0 6f 74 e0 b6 bf 93 17 4e 44 75 ef b3 3f
       -0.08936240887886533 0.07787259023288433
000590 64 62 fb 78 c6 c4 b5 bf 2d e4 e2 4c f6 0e a2 bf
       -0.08503380254422549 -0.035270401845487555
0005a0 9d 3e 5e 48 fc a5 ac bf d0 a0 43 0f e7 7e ae bf
       -0.055953868707658595 -0.05956193982439262
0005b0 fc 2d 94 24 30 d8 ba 3f 1f 46 16 c2 11 ee ae bf
       0.10486126797712098 -0.06041007513261953
0005c0 ac 72 10 c7 b3 a1 b3 bf 0d 5f f4 8f 8a b4 b0 3f
       -0.0766861306187347 0.06525484098926544
0005d0 8f d7 55 db aa 9b b4 3f e8 71 9e 4b a6 28 a6 bf
       0.08050029616228314 -0.043278881769967914
0005e0 cd e6 61 b9 0d 20 a5 bf ee dc 98 00 b0 80 b1 3f
       -0.041260174636546056 0.06836986555650856
0005f0 5b ec 7d bf a6 27 b1 3f e6 16 fd 69 9e f4 b3 bf
       0.0670112817296497 -0.0779513367425256
000600 16 b8 cf c1 31 4a 89 bf 4a 23 05 77 58 50 ab 3f
       -0.012348545767931578 0.05334736302262984
000610 94 04 15 bb cc 4f b4 3f 5e 50 f5 b9 dc 46 ae 3f
       0.0793426472419177 0.05913438577650319
000620 ba e9 37 e4 c9 27 b3 bf cd c7 de b0 71 af b0 3f
       -0.07482587644327668 0.06517706459160806
000630 fd f1 28 a4 f9 33 b2 3f d6 46 3f e7 6f 24 b0 bf
       0.07110557802020163 -0.06305598636324858
000640 3c 12 dc 71 07 5f aa bf 43 25 75 88 a3 14 b1 3f
       -0.05150626435173364 0.06672117310985919
000650 1c bd e4 9e 81 11 a3 bf 28 7d 23 90 6c b1 b2 3f
       -0.03724293770425843 0.07301977652558789
000660 83 f7 94 a4 91 68 8e bf 5c 19 80 f6 ae b2 9d bf
       -0.014847886881962818 -0.02900193576353992
000670 81 94 50 47 9c ee a3 bf 01 c6 9b e5 30 f9 af bf
       -0.038929828362861414 -0.06244805147970212
000680 d7 6f c1 dd 93 12 a9 bf 95 0e 38 b9 7f 5d 8b bf
       -0.04896986085870452 -0.013361928787168945
000690 2b af 09 16 cf 90 b2 3f a8 03 88 7f 1d 49 a6 3f
       0.07252210891755044 0.0435265749147285
0006a0 93 69 16 ed 5a af ad 3f f8 64 aa 2b f6 88 a7 3f
       0.057978478852606895 0.04596680911090262
0006b0 1f 1e a0 f7 c9 9b ad 3f eb ba 89 66 57 d0 ac 3f
       0.05782920024654125 0.056277018801542976
0006c0 cb ee 21 0e e2 be b4 bf 9e 0f e0 f8 0c 58 b1 3f
       -0.08103764386208494 0.06774979663901923
0006d0 4f d0 83 f9 f6 ce a9 bf be 99 16 0e af 56 b2 3f
       -0.05040714069210194 0.07163518995239479
0006e0 e2 0e 86 4f bc f3 b0 3f 59 25 2d 0c ab d3 b0 3f
       0.06621910993095129 0.06572979972147176
0006f0 58 76 42 72 f1 cc a0 bf 2d c0 a8 2d aa e9 a9 3f
       -0.03281359214564067 0.05061084563601557
000700 7f 89 79 7f 01 5c b2 3f f1 44 e2 ab fc 9b a6 bf
       0.07171639787842386 -0.04415883634750085
000710 58 ca 02 2c 0b 18 a0 3f a9 73 80 13 30 e2 ac 3f
       0.031433438417839354 0.05641317594584134
000720 78 45 55 1a 4c b2 b0 bf 00 cf 7e 0c 43 c5 b3 3f
       -0.06522060053727852 0.07722872786581192
000730 56 61 0b 5b bb dc b3 3f 24 4d 2b 5f 6c b2 b5 3f
       0.07758685086026182 0.08475377391305422
000740 32 b8 cf 72 75 bf a0 3f ab cc 2e 7f 37 a2 80 3f
       0.0327107145929947 0.00812190396195541
000750 1a 95 7e 82 34 d7 a6 bf 5a 44 3b a7 73 6f b1 3f
       -0.04461063473653777 0.06810686905670718
000760 96 4c 22 95 6f 20 b0 bf 2c 8c 68 76 7c 0f aa 3f
       -0.06299493208853088 0.05089940019049552
000770 0f b5 dc be 43 ce a7 bf a9 d2 69 72 3d 10 b1 3f
       -0.046495549248314665 0.06665405314727003
000780 e8 30 08 4d a6 8b b7 bf 8e 30 82 9a 1e 58 b6 3f
       -0.09197463398612948 0.0872820975511692
000790 a1 d2 1a 61 9e 40 99 bf 13 59 22 7d 9d fa b0 bf
       -0.024660563160710528 -0.06632408432992447
0007a0 e6 c6 7b 79 0f 73 a7 bf 99 47 53 0c 2f 45 b0 bf
       -0.045799716548470745 -0.0635556607333271
0007b0 63 14 8d 11 0d db af bf 76 38 1b b0 43 eb a8 bf
       -0.06221810187575085 -0.04866992497191884
0007c0 18 d7 82 20 71 e2 b0 3f ff 46 d2 1a f2 11 aa bf
       0.0659552292225637 -0.0509181649914705
0007d0 73 1e 3c dc 68 97 b1 bf 8f 7b a1 f4 78 36 9c 3f
       -0.0687165773089136 0.02755154603107318
0007e0 3f 16 33 23 ea 4e b4 bf 51 f7 33 10 9e 73 b1 3f
       -0.07932914122928823 0.06817043204861518
0007f0 4b 56 14 8b f1 e3 b2 3f 9e 9d 5b 58 ae 2a a7 bf
       0.0737906422185343 -0.04524750546061827

policy_graph_hap1.bias f8 [1]
000000 66 13 95 fb e6 d7 a4 3f
       0.04070970364640551

policy_graph_hap1.weight_orig f8 [1, 264]
000000 f8 46 42 e0 5b 4c ba 3f 5e 3d aa 81 f1 c1 a8 bf
       0.10272764420576752 -0.04835467059921926
000010 3f 67 00 0a 37 2f bb bf 0a ce 0a e2 01 01 ba bf
       -0.10618919367007339 -0.10157787102325969
000020 d8 2b 59 60 92 a7 a2 bf 1a ae 19 f2 eb d1 9f bf
       -0.036434721242208645 -0.031074225093489095
000030 1b 19 dc 47 30 9c a3 3f 65 84 fc b7 ad 51 bc 3f
       0.03830099942392647 0.11062131635527946
000040 ba 03 6f 66 56 36 92 bf 27 38 86 de 34 9a aa 3f
       -0.017785406114629622 0.051957752383814
000050 91 26 20 b3 1a f5 aa 3f 81 20 6f b2 49 cf b5 3f
       0.05265124737350136 0.08519421201993006
000060 52 50 2f 2e 4d bf bd 3f cb 6c c1 e9 da 66 bd 3f
       0.11620027902182642 0.114850694722395
000070 a2 eb 0d c8 8d 0a af 3f 24 ba 4a 70 8d 60 91 bf
       0.060627394362163814 -0.016969881037477333
000080 52 81 d5 1b 4b 26 b6 3f 76 2b 6e 50 04 e8 99 bf
       0.08652181081334234 -0.025299136551932354
000090 86 7b b5 42 36 c6 b1 bf 59 78 f9 cc 02 cb 9f bf
       -0.06943072441707274 -0.031047862778330024
0000a0 ad e1 74 24 a4 53 b8 3f 69 94 e9 93 af 7c b9 bf
       0.09502626314213698 -0.09955880509512983
0000b0 35 29 92 9a 87 97 93 bf 0c d0 c7 d9 ae 72 4e bf
       -0.01913272744108348 -0.0009291986239632357
0000c0 ea c4 52 29 c6 6a a9 bf 4c f8 69 94 a9 e1 90 bf
       -0.04964274649081253 -0.01648583381983597
0000d0 88 2b 00 2b 08 7a 89 bf 45 94 b7 33 06 ea ae bf
       -0.012439788639331942 -0.060379213154910384
0000e0 d6 d4 77 07 e8 19 a8 bf d0 de b7 1b 90 ad a4 3f
       -0.047072649871475455 0.04038668001515833
0000f0 f9 f1 14 3b fe 5c af bf 08 f9 36 d0 39 df 63 bf
       -0.06125635596479024 -0.002425778309514407
000100 b1 45 51 b0 03 0c 9e bf b4 24 7d 65 96 fa 65 bf
       -0.02934270633369857 -0.0026829659872516735
000110 54 bb f7 80 94 5e 85 bf b9 f5 36 d5 8a f2 60 3f
       -0.010434303460866858 0.002068778188656775
000120 77 a4 64 ed fb df a1 bf bf 97 28 6f 7e 47 b8 3f
       -0.03491198799958622 0.09484091008979954
000130 d1 6c e4 d3 0c b8 bc 3f 48 3f b0 e1 7e da 94 bf
       0.1121833817782545 -0.020364744687014352
000140 96 34 c5 ca 44 bf bb 3f 4e ed 18 a2 01 e7 bc 3f
       0.10838727903792952 0.1128998776193175
000150 46 8a 0c ea 85 a7 b6 3f 64 c8 ca 31 b7 f5 b0 bf
       0.08849369968496842 -0.0662493225634378
000160 d0 fa 10 06 b9 31 b4 3f 68 3c 10 1e 58 38 63 3f
       0.07888370893577279 0.0023462029498726895
000170 88 67 e3 d7 da ab b1 bf 86 32 78 d4 f4 d4 90 bf
       -0.06902854700766003 -0.016437364070997627
000180 26 e6 91 2a 51 d1 b0 3f 7a d2 39 53 fa 87 b0 3f
       0.06569392480187072 0.06457485706216373
000190 ff a5 fc fe 28 be b3 3f 42 19 33 e5 73 4d 96 bf
       0.0771203634764319 -0.021779833664163258
0001a0 43 8a 13 a0 e2 65 ab 3f a0 e0 74 42 18 26 91 bf
       0.05351169780785316 -0.016746882492242876
0001b0 a3 92 8b 5b 96 85 b2 3f cc d2 c4 42 34 a5 a6 3f
       0.0723508809565581 0.04422915759133658
0001c0 73 86 69 bf a4 db b3 bf 48 64 09 7b a8 aa ba 3f
       -0.0775702445330582 0.10416653636765816
0001d0 27 26 42 c2 c0 27 a2 bf 95 20 c7 14 77 fe a1 3f
       -0.03545954104727072 0.03514454010616067
0001e0 db fc 62 78 b2 d9 b4 3f bb 7b d4 1f af dd 82 3f
       0.08144679488303856 0.009211891325831325
0001f0 7f 38 9b b5 c5 b0 ae bf f0 49 7c bf 61 4c bd bf
       -0.05994241563676982 -0.11444674420298617
000200 21 7a be cb ed 01 a8 3f f0 1a 93 7e 2b fd aa bf
       0.046889716263866406 -0.05271278305149518
000210 a4 75 a7 b4 e6 22 b1 3f fd 1f e5 80 08 0b 78 bf
       0.06693879995824276 -0.005869897095472251
000220 b2 0c b1 37 7a d6 b3 3f 63 fd 07 e0 86 3e b0 bf
       0.07749141559274866 -0.06345408410560575
000230 ac 18 78 07 6d 9c ad 3f 9a 6f db 0b b6 84 b5 3f
       0.05783405986953602 0.08405626096231203
000240 02 cf 16 11 8c 0e 97 bf 75 a8 4a db e9 d6 89 bf
       -0.022516430419002205 -0.012616946224927464
000250 89 9d 7f 67 ae 2a 94 bf 18 f9 87 93 7e 53 b3 bf
       -0.01969406611160943 -0.07549277402720056
000260 34 db ba c4 be 3d af 3f e7 92 df b5 5b 78 a6 3f
       0.06101795341003538 0.04388701052793014
000270 81 66 3c 8c 83 0c a4 3f 89 d3 0a ca c1 0d b6 bf
       0.03915797316421977 -0.08614741499589064
000280 80 1b 68 3c 94 8b b0 3f 4c 82 98 89 bc ec c0 3f
       0.06462980723163803 0.1322246238569441
000290 19 ac ff c1 34 48 b8 3f c3 3e 53 49 f3 79 ac bf
       0.09485177742287511 -0.05561790723879547
0002a0 78 fa c4 10 b9 c2 a6 3f 9a bd fb 06 46 b4 a4 bf
       0.044454367920924776 -0.040437877991162455
0002b0 d1 ca 68 42 d6 8f a7 3f e3 ad 11 2c 2d 5e b1 bf
       0.046019263846024956 -0.06784326864151739
0002c0 b2 7a 23 ca b1 87 71 3f 07 fe ec ea f9 6a ad bf
       0.004279798975601311 -0.05745678894754396
0002d0 12 65 06 6a 36 82 91 bf 2c 8b 21 93 51 ec ae 3f
       -0.017098283978701785 0.06039671822579459
0002e0 5e a5 4f 45 48 2f 97 bf a7 c9 8d 1b 32 d6 bc 3f
       -0.02264130518952833 0.11264336750699631
0002f0 24 45 39 e8 7e 87 94 bf d8 aa 0c ef 34 11 c0 3f
       -0.02004812519436884 0.1255251090272711
000300 b1 db 68 cb 31 c0 b8 3f b7 72 6b 0a 08 db b2 bf
       0.0966826554875826 -0.07365465406787562
000310 53 a1 59 c5 51 f3 9c bf c5 5e 2d be da 94 b3 3f
       -0.02827193991689232 0.07649008887289728
000320 64 2d 15 96 af d1 96 3f be e3 46 0e 02 19 b1 3f
       0.022284263167688848 0.0667878422599548
000330 d6 21 b5 fd d6 09 94 bf d1 7f 20 cc ce f9 a3 bf
       -0.019568785891609007 -0.03901525728019773
000340 f4 2b ed 41 81 8f bc 3f fe a4 95 af f0 9b a5 bf
       0.11156471118481176 -0.04220535415044856
000350 9b b4 58 67 e5 22 b5 bf 99 7a 1f 99 d4 67 b5 bf
       -0.08256372235401203 -0.08361557710984825
000360 93 ed 16 75 25 8b b3 bf c8 92 4b b9 a6 fa 99 bf
       -0.07634195431358241 -0.02537022119476509
000370 6c 2a eb 20 7e c0 a0 bf c5 13 b1 c5 65 8e b5 bf
       -0.03271860267485213 -0.08420406414468491
000380 1c 0b a4 b3 f6 08 aa bf 80 15 6c 5f 26 85 b3 3f
       -0.05084963744049828 0.07625045613902692
000390 c6 47 53 c3 5b 10 75 bf c9 56 86 ba a6 31 b3 3f
       -0.00514255375783707 0.07497636846377555
0003a0 f1 97 bb db 23 b1 b8 3f fe 17 96 f8 7b 77 bb bf
       0.09645294298715591 -0.10729193514825394
0003b0 bb 46 dd bf 99 94 c0 3f d2 61 ff 28 39 3a b4 3f
       0.12953492992760637 0.07901341677587162
0003c0 0a d4 33 46 56 90 7e 3f 0d 02 93 6b af 0b c0 3f
       0.00746186924810833 0.12535660507821014
0003d0 a1 99 09 bf 76 c3 97 bf 37 90 a5 46 05 36 84 bf
       -0.023206572923663796 -0.009868661135165364
0003e0 42 e0 5f 95 3e 55 81 bf 86 1f 87 d8 ef 71 ab 3f
       -0.00846337216715665 0.05360364454423831
0003f0 ae 95 ed 44 d1 d4 a3 3f 0e 41 9d b0 a7 01 ba 3f
       0.03873304335028692 0.10158775388595506
000400 f5 52 b4 f1 52 cc be 3f c7 c8 86 45 28 3b bd 3f
       0.12030523682581047 0.11418391892837852
000410 16 02 25 7f f4 ea 9e 3f 55 47 1e b0 94 c9 96 3f
       0.030193157444275164 0.0222533447736802
000420 3c b0 7f a8 ab ea ba bf be 07 da 5c de 9e 9c bf
       -0.10514328826656166 -0.027949785630432926
000430 6b ee 7c dc 1e c2 95 bf 76 36 c3 28 88 27 aa 3f
       -0.02124832363845856 0.051082854247948825
000440 09 7f 38 fa 6c 99 9b bf 88 ab 62 09 18 ba a1 bf
       -0.026952460071810545 -0.03462290873115764
000450 23 f1 78 3e 45 16 91 bf 01 21 fa 5f f0 1b a1 3f
       -0.016686517656340116 0.033416282382917835
000460 b8 13 0f fb d7 70 c0 3f 72 81 e2 94 9d 2f 7a bf
       0.12844371565566148 -0.006393065980006761
000470 34 94 ca bc ea 55 ba 3f fb a8 84 0d 88 54 9e bf
       0.1028734885135954 -0.029619336915097865
000480 a3 3b 68 21 e1 ed b3 bf f0 ba 5e c1 b9 c4 a8 3f
       -0.07784850183109752 0.048375897269002155
000490 eb 5f 71 a7 56 0f bc 3f 3a 13 b4 ac 14 92 b6 bf
       0.10960904682121934 -0.08816651550666857
0004a0 52 30 0f af 7e ef 88 bf fb dc a8 d0 a3 fa b4 3f
       -0.012175550191294491 0.08194946140507746
0004b0 db 8d 4d 9d 97 64 ba 3f f5 a0 0c 6f 85 34 a4 3f
       0.1030974158325572 0.03946320515234617
0004c0 45 22 c2 d9 f2 3b a6 bf a2 dd 1f 4b 27 15 bb 3f
       -0.04342612178976827 0.10579152664273875
0004d0 d0 ff f4 2c 9d cd b8 3f 29 08 6b 29 a8 88 90 bf
       0.09688742015441609 -0.016146304634055895
0004e0 c1 6a 77 54 a0 04 af 3f d3 02 00 ee d6 46 68 3f
       0.06058217078289863 0.00296346643881438
0004f0 46 eb 99 c6 1a 30 b7 3f e0 e2 13 43 54 4b 92 bf
       0.09057776783622015 -0.017865482896897045
000500 53 13 93 4f a3 f8 89 bf d1 71 4c 1a a6 e4 b7 bf
       -0.012681270471497951 -0.0933326544004054
000510 87 54 36 14 7e cd b8 3f a7 56 d3 68 3e 23 ad 3f
       0.09688556664908009 0.056909513755880874
000520 dd f3 64 8f 28 80 b0 3f 4e 3c 5e 8a 47 e1 b9 3f
       0.0644555425723889 0.10109374168517712
000530 2a e0 50 b1 6b fe be 3f a3 46 a3 f9 c3 63 b1 bf
       0.12106965140344586 -0.06792855114624756
000540 74 de b7 6e a5 71 77 bf a1 20 87 85 26 9e 84 3f
       -0.005723615856815568 0.010067273092218722
000550 1a 93 a1 13 8e 7c 9f 3f a5 d5 24 18 64 a0 ad bf
       0.030748577068510398 -0.05786431116795691
000560 57 f8 4f 91 2d 5a b5 3f cf 44 1a ab 58 58 b5 3f
       0.08340725705781558 0.08337930848417162
000570 3c b8 29 48 50 d9 92 bf 9a 38 95 b2 d9 a4 8c bf
       -0.018407110599973672 -0.013986302149217079
000580 82 f6 56 e9 5c cc bc 3f a6 bb f6 b9 69 00 b0 bf
       0.11249333092470162 -0.06250630178577285
000590 fd cc 62 c5 25 93 b6 3f a6 90 b0 5e ff 27 b9 3f
       0.08818279332153973 0.09826656400452069
0005a0 f1 ba fa 03 79 4a bc 3f 3a 86 af ce 91 6d a0 3f
       0.11051136347917258 0.03208594940202798
0005b0 c6 20 ff 8b 5b c6 bb bf 70 08 8b 59 04 df b3 3f
       -0.10849544685254661 0.07762171922789363
0005c0 8c 70 8b ee 14 0f b2 3f c4 07 20 6f c7 b6 97 bf
       0.07054262946934581 -0.023158184201754542
0005d0 50 4e 69 fd 5a 0f ba bf aa 3f 83 36 13 df b0 3f
       -0.1017968052558953 0.06590385514141298
0005e0 59 9c b9 18 87 d8 b7 3f 30 59 ad bc 28 d6 97 bf
       0.0931477008212921 -0.023277889743746616
0005f0 34 4c 29 2c 23 44 9a bf a9 7c 0b dd 24 f8 ae 3f
       -0.025650548525231368 0.06048693846036574
000600 55 73 2c 9b 40 aa 8a bf 3e 3c 9d 30 c5 ee a5 bf
       -0.013020043120883487 -0.04283729761538567
000610 67 8e a2 f7 32 e1 b0 bf 50 98 a4 99 07 02 8c bf
       -0.06593626542831431 -0.013675746322928145
000620 2f e7 5a a0 2d 9e bb 3f 3c de 0b a7 14 4a 92 bf
       0.10788235821646873 -0.017860720344257994
000630 cb 53 fd aa 22 cd 9f bf 6a 7f be fb bc 30 b1 3f
       -0.031055967031836034 0.06714993616196599
000640 ae 6c ca ea 42 30 b5 3f a7 10 7f d6 e8 77 97 bf
       0.08276766044802983 -0.02291835602933703
000650 21 08 6c 7d 82 27 a4 3f 43 4e 7f 0e b3 8f 9d bf
       0.03936393528967153 -0.028868482360691294
000660 31 42 96 ec da eb b0 3f 24 45 af 7d 75 af b3 3f
       0.0660988643269398 0.07689604109261389
000670 3c 2c 12 bc 77 6e b7 3f 26 59 69 14 8b 79 a8 3f
       0.09152935353829234 0.04780230163730641
000680 1f 14 76 f8 21 db ba 3f 03 8f 59 88 5b 7a 8b bf
       0.10490619960735657 -0.013416972254340026
000690 a0 76 22 2a ff 22 a4 bf 8e a8 58 75 ab 20 77 3f
       -0.03932950391138701 0.005646390685379766
0006a0 3b 6e d8 60 d3 53 90 bf 56 f5 b2 43 b8 aa 95 bf
       -0.015944769655204843 -0.021159056789419615
0006b0 92 4f 4b cb cb c8 81 bf ff 00 e6 82 12 a2 af bf
       -0.008683769361063107 -0.061783388594450976
0006c0 f2 25 d9 5d 86 91 bb 3f c1 8b f3 ff d0 f5 99 bf
       0.10768928328720742 -0.025351777669935908
0006d0 52 43 72 18 d4 fe b9 3f 90 e9 f0 9d 2c bc af bf
       0.1015446242984244 -0.06198253086081984
0006e0 b7 52 12 78 52 09 99 bf 96 f5 04 d2 3c 03 b1 bf
       -0.024449623659694022 -0.06645565154481967
0006f0 4a 20 99 e1 78 36 b6 3f e3 d6 23 5f 54 29 a3 bf
       0.08676867969291027 -0.03742469464661526
000700 65 07 1c 09 e1 91 98 bf a5 b8 e2 04 8b ae b8 3f
       -0.02399398439502622 0.09641331548002315
000710 5c c9 44 f8 13 51 98 bf f1 1a 59 2a 68 30 86 bf
       -0.023746788051718468 -0.010834516327248052
000720 78 32 61 8c a3 7b ab 3f c1 ad 02 11 ba 80 ae bf
       0.053677664648238144 -0.059575857712242726
000730 31 54 5a bc 5e 55 99 bf 56 ff bc fd 81 5a af bf
       -0.024739723440309006 -0.061237394546423005
000740 e5 33 49 6f ec d7 a8 bf a7 16 64 45 a5 f5 a3 3f
       -0.04852236612769171 0.0389835021215224
000750 d6 83 25 88 59 51 b8 3f aa df d5 6b 66 97 94 bf
       0.09499129842653473 -0.02010879548240011
000760 2e 04 89 43 e2 1f bd 3f f9 92 7a 06 28 0e b2 bf
       0.11376775883492549 -0.07052850874113038
000770 c5 48 2f 7d 7e f4 a2 3f 17 8e b7 bf c7 4f 99 bf
       0.03702159193166347 -0.02471840007446077
000780 9c 00 d5 67 77 b0 bc 3f 7e c9 ee ef 88 e5 b1 bf
       0.1120676640030091 -0.06990867479070137
000790 a9 87 8c 9b a7 63 b1 3f 31 f8 41 00 54 70 b1 3f
       0.06792686030942598 0.06812024122516004
0007a0 c4 85 da b8 33 ad b6 3f 0b b3 01 52 02 34 be 3f
       0.08858035338427955 0.11798109533419791
0007b0 0a 17 63 f8 cf ae ae 3f a4 3f c7 da 71 9c b9 3f
       0.05992746264523248 0.10004340735690548
0007c0 aa 0b db e8 17 56 96 bf ef 82 9e 90 7f d6 b1 3f
       -0.021812795245533735 0.0696792343210395
0007d0 22 5f 56 a0 5d 38 a9 3f b0 a4 87 87 db 6d aa bf
       0.04925816137546081 -0.05161939649026104
0007e0 a6 0c 74 1f d1 c4 b4 3f 97 65 ae ea f0 24 b1 bf
       0.08112818735030433 -0.0669699261619797
0007f0 e7 ca 2f 7e 9c d9 a3 bf 4f 7a 2d a8 16 ef ba 3f
       -0.03876961746563783 0.10521070104503248

policy_graph_hap1.weight_u f8 [1]
000000 00 00 00 00 00 00 f0 3f
       1.0
