data/models/ralphi.v1.long.pt (torch, 29365 bytes, 17 tensors)

policy_graph_hap0.bias f8 [1]
0.009558958558371609
00000000: 32de 22b3 a593 833f

policy_graph_hap0.weight_orig f8 [1, 264]
-0.046998802302685494 0.07002476114185557 0.07110416722027506 0.09617626318205197 0.07039398706445903 0.069201902898704 -0.059518435994385686 -0.05702826010088938
0.06432447225781254 0.007033175042068432 -0.0614553901774489 -0.05439093127912251 -0.0728234726373436 -0.05678717298624226 -0.06163984682961316 0.060668545271286026
-0.0305742862698525 0.06577637848224947 0.04763945619685806 -0.013535985150950737 -0.03908680751933803 0.08922992619666029 0.06103852974190855 0.07513327652490512
0.07590016091549487 0.05778415759233777 0.06341099159778286 0.07250266326160462 0.033789713970477066 -0.04473291361304024 0.08113074933558623 0.051518108020369685
0.07151118789037846 0.050387160207501766 0.06951665175987352 0.02962713544999213 0.05187625047602381 -0.04118109669560982 -0.05928562875167585 0.021357619023679116
-0.06345580635059944 -0.054936642464141996 -0.04048542317328301 0.07935109401456562 -0.07446896938319535 0.03768469436036347 0.05833025424760859 0.058356963489560654
-0.016657860308976428 -0.07349350214485202 -0.027867683841781635 0.07743777106919533 -0.05799934211342416 0.05728268382909168 -0.02617506300449071 -0.04994138232106631
0.087039535345427 -0.047251501911195995 0.04606315947377757 0.005136925531146874 -0.030711525141129084 0.031822765399039804 0.04434586850955279 0.08351392908548519
-0.04369861482879446 0.07086603015076119 -0.05117525396334971 0.05488463276861429 -0.052723174787920546 0.0862370386054591 -0.06585590318380309 -0.03112158996781751
0.06285158558179674 0.055783109730541944 0.060990105513761564 0.08048509740037457 -0.07546164445584255 -0.05204268239526428 -0.06298756261388047 0.07777904259251141
-0.05802999152698118 -0.10110614559855059 -0.06875128414471139 0.0374325463550809 -0.051630120703288485 0.08862316047409025 -0.0474429674599862 0.08354987988363874
-0.02467026733342257 0.029545721761244894 0.060915284252332016 -0.06366980123494162 0.08084139582498398 -0.09504749948836723 0.061977115244648176 -0.0664120831548786
-0.044114356897884316 0.07875465184338534 0.0786132815877554 -0.052467263080327446 0.00422198389314816 -0.07336193595036994 0.07044367268520191 0.013045875865627849
-0.0503662898846028 0.05821296332631735 0.07124435521574338 0.05430161701205534 0.08438862506675758 0.07618132310517568 0.019719659393870933 0.09121447660431753
0.08278998124096347 -0.0795463495411291 0.06253334611921581 -0.057529379110750324 -0.03896757123090101 0.06971555745859764 -0.07224166598662882 -0.0778066986612991
-0.02991478189318566 -0.0699689663352075 0.06866237890380214 0.054776680523903186 0.054202744848087785 -0.058794230113339487 0.014356696918557992 -0.062239941527367344
-0.06151051425715802 -0.061578769316878765 -0.037085293936264425 -0.0541224408565787 0.10097740554714069 0.057435298753760716 0.07294325922063122 -0.0537537183273759
0.060677061795477466 0.07823847697822814 0.05815397598372943 0.01986122803994696 -0.09631823081560552 -0.0247504077824342 -0.045310850861429906 0.08172989067491847
0.07942755844541698 -0.007728350932233125 -0.0605684929992164 0.07041720957471376 -0.024548977695403516 -0.03400650053556296 -0.04869195899062626 -0.05842510783950542
0.07829481965791209 -0.1000384964431733 -0.051482469566793004 0.027291184589224846 -0.05299931601004229 0.04662996433194818 -0.03660069024903388 0.06568012465669705
0.0416266777511103 0.05841591729263963 -0.05026500825061656 -0.06862429583105359 -0.07485876470759009 -0.06307982933515892 -0.05941731612539815 0.09304783022441765
0.04398652657686555 -0.03656007348713122 -0.06731715446226127 0.02380461228980765 -0.029947390550201514 -0.036479188005467185 0.06872205689023098 0.05606130942728511
-0.08941204662652734 0.07621792920407827 -0.085144349999637 -0.0338912499969453 -0.05591540577180182 -0.059690411711814585 0.10182974590133471 -0.0605363013267035
-0.07686707917464838 0.06397390970290012 0.07745344801606659 -0.043053187777595966 -0.04044710581333689 0.06733142684411933 0.06579014913050964 -0.07814114444723254
-0.01305083542261541 0.05074225322572325 0.0779678203958111 0.05966455372826373 -0.07489887103239105 0.06547960481679989 0.0696826575466005 -0.06317669238428832
-0.05145093583463659 0.0654198922038644 -0.036359053179733106 0.07226221001354728 -0.011627967020367837 -0.02790778284728778 -0.03832747290691912 -0.0625754179627032
-0.0485990323334163 -0.015115111642837596 0.07065676472489821 0.04530987048998518 0.05722418955729933 0.04365249768193623 0.05989426787348898 0.053539031568417064
-0.08111612666753315 0.06614348602364113 -0.05030773158870435 0.06960314892787847 0.06501871353038947 0.06303123308133467 -0.031217987206729463 0.047988743967621934
0.0715237870801785 -0.04366473815313956 0.029015870148986458 0.055395961781756396 -0.06539328599172467 0.07580293934108516 0.07918451865693514 0.0839749425662293
0.030215717679754242 0.009892048165782978 -0.044275028580343184 0.06821873044899851 -0.06305649898384438 0.04816129814988562 -0.046246173721614395 0.06547233867185569
-0.09189953829579943 0.08626930277162842 -0.023024051395649316 -0.06693744676133713 -0.045587365895850086 -0.06357507231397688 -0.06234148939690911 -0.04847300035644169
0.06516504588270984 -0.05097961287437288 -0.06896382740148052 0.025167492928474876 -0.0794751862081659 0.06546441735144252 0.07194908073375854 -0.04467107252011089
00000000: 40b2 ae1d 3a10 a8bf 0cb5 038b 24ed b13f
00000010: 8305 d2f8 e133 b23f 00b6 04f1 019f b83f
00000020: d3e2 4620 5705 b23f c959 c545 37b7 b13f
00000030: c3bc 3550 3379 aebf 2486 29e0 ce32 adbf
00000040: 0605 ae90 9177 b03f dd02 af8c d1ce 7c3f
00000050: 6a3b f3b5 1477 afbf cdeb 15ce 20d9 abbf
00000060: 62c9 5b21 8fa4 b2bf 11cd 9d55 3513 adbf
00000070: 89fb 860c 428f afbf 3a11 ac93 f20f af3f
00000080: a69e 829e dd4e 9fbf 773a 6e82 b8d6 b03f
00000090: e1bd bae4 3264 a83f 27fd 562c c1b8 8bbf
000000a0: 224f 00a0 2f03 a4bf 82d2 d6be c5d7 b63f
000000b0: c928 1332 7140 af3f f20a 8435 ef3b b33f
000000c0: f6a7 e464 316e b33f 4d08 2c96 e295 ad3f
000000d0: 8991 1ee7 b33b b03f b2dc 94d7 888f b23f
000000e0: 8587 e3a8 e24c a13f 94ac 0b82 3be7 a6bf
000000f0: 34a8 181b fcc4 b43f 3cd5 32da 9460 aa3f
00000100: 9f8b 49a5 8e4e b23f 4e85 758a 58cc a93f
00000110: 2f09 d6e1 d7cb b13f f1d7 5367 9356 9e3f
00000120: eb9d 771e 868f aa3f 18c8 0a4f b015 a5bf
00000130: 1ef5 3899 af5a aebf 9294 e88c c5de 953f
00000140: e062 04c5 a33e b0bf 0298 78d5 a720 acbf
00000150: c7e9 fc60 81ba a4bf efc2 b171 5a50 b43f
00000160: 7751 11fc 6510 b3bf ffce ac83 684b a33f
00000170: 8bc0 b88c 76dd ad3f 60f1 5cc3 f6e0 ad3f
00000180: 015a fe14 c20e 91bf c53e 2e5c 78d0 b2bf
00000190: a4e5 dc9a 5889 9cbf dea2 3736 f6d2 b33f
000001a0: df22 22fb 16b2 adbf e79a 58eb 2754 ad3f
000001b0: e7d3 4cbe a2cd 9abf 3770 92b7 ea91 a9bf
000001c0: 6284 c415 3948 b63f d27a ca4e 5931 a8bf
000001d0: 8d09 fb26 9795 a73f 0d3f 88f2 740a 753f
000001e0: 24a0 5d90 d772 9fbf cc76 50d1 124b a03f
000001f0: 5f28 ec6d 80b4 a63f 52c0 2e3a 2b61 b53f
00000200: b2ed 2333 aa5f a6bf 2716 e5b1 4624 b23f
00000210: 882f 4694 a433 aabf 3b9d 96ad d619 ac3f
00000220: 902b e92e 88fe aabf 8bab 836c a113 b63f
00000230: 3148 6cb6 eedb b0bf 13f8 718c 56de 9fbf
00000240: 0a58 93a0 0a17 b03f 8678 ec8f 9a8f ac3f
00000250: fa54 1f59 183a af3f 5065 26dd ab9a b43f
00000260: 164c 0a4f 7451 b3bf 297e c4a5 56a5 aabf
00000270: fe3a 7bf1 f31f b0bf 45c0 3fcc 53e9 b33f
00000280: 2f51 9767 1bb6 adbf 3938 c5a4 17e2 b9bf
00000290: 55a4 f524 af99 b1bf e559 cdd4 5b2a a33f
000002a0: f87c d15f 436f aabf 4885 e7e7 01b0 b63f
000002b0: 0de8 54d3 714a a8bf 5259 af61 8663 b53f
000002c0: 1ac3 859d 2943 99bf b717 ced2 3b41 9e3f
000002d0: 4a70 61c3 4930 af3f 4a01 0c02 aa4c b0bf
000002e0: 4a36 3b8f 05b2 b43f 417e de6d 0855 b8bf
000002f0: fa01 27e6 76bb af3f 9b9d 35dd 6100 b1bf
00000300: 1c2b 5230 2896 a6bf b640 13ce 4329 b43f
00000310: b15d 7301 0020 b43f 0fce 1436 fddc aabf
00000320: 4aca ec2b 124b 713f 0497 ad0b d9c7 b2bf
00000330: 48a0 64b6 9808 b23f aa3d 86d1 cbb7 8a3f
00000340: 721d c03f 9cc9 a9bf e52a 61eb 16ce ad3f
00000350: 121d adef 113d b23f 7a96 5fea 6bcd ab3f
00000360: dfed d030 7e9a b53f 4980 4d83 9e80 b33f
00000370: 8f5f bdf0 6331 943f f4f2 eff9 d459 b73f
00000380: d7cb dd65 b931 b53f 049b cb49 265d b4bf
00000390: a9d1 7d74 2f02 b03f e501 aea3 7d74 adbf
000003a0: 6221 15b8 8ef3 a3bf 2c9d 4ef7 e0d8 b13f
000003b0: 5635 d208 6e7e b2bf 32f6 28ca 23eb b3bf
000003c0: 26c3 9707 fba1 9ebf 3407 2576 7ce9 b1bf
000003d0: f27d db8f db93 b13f 6301 de66 b00b ac3f
000003e0: 47b2 f350 76c0 ab3f 5d82 0fff 461a aebf
000003f0: 7648 f33d 0b67 8d3f a1e0 bae2 e9dd afbf
00000400: 0e74 305e 4e7e afbf 9e16 b0a0 4087 afbf
00000410: b9d3 3cf9 d7fc a2bf b1da eac2 efb5 abbf
00000420: e4bb 75be a7d9 b93f bc18 91d3 2868 ad3f
00000430: 84f6 d0d0 68ac b23f 974a 827c 9b85 abbf
00000440: 1cd2 0e58 1011 af3f f60b e9d3 6f07 b43f
00000450: 9408 f7a1 5bc6 ad3f 6554 8f73 8056 943f
00000460: 2792 5cc3 4fa8 b8bf 9fef f3bf 2b58 99bf
00000470: fb21 35dd fb32 a7bf 23ef 8d07 40ec b43f
00000480: 0398 ec4d 5d55 b43f 8761 1868 c3a7 7fbf
00000490: ef03 3361 d502 afbf f0ef 32bc dc06 b23f
000004a0: 7970 6801 5e23 99bf fda4 4dcf 4c69 a1bf
000004b0: 7dc5 e206 27ee a8bf b534 df4e e5e9 adbf
000004c0: d17f e019 210b b43f 3f7f 9076 1f9c b9bf
000004d0: 3ca0 3606 e95b aabf 1c89 1e65 38f2 9b3f
000004e0: b46e f2f1 b922 abbf ab83 a3f7 e1df a73f
000004f0: 7ee1 425f 53bd a2bf c9d0 65a3 69d0 b03f
00000500: 820f 2a87 1750 a53f b2ea acec b0e8 ad3f
00000510: 759e 23cd 55bc a9bf fa2e 4ea2 5c91 b1bf
00000520: 66f1 3caa f129 b3bf 0322 08ec ff25 b0bf
00000530: 423c 264b f26b aebf 0813 c78b fbd1 b73f
00000540: c47b 39ea 6685 a63f 44e4 ee7f 00b8 a2bf
00000550: a00c e070 b23b b1bf 375f 1d7d 3c60 983f
00000560: 90fb 0d5c 87aa 9ebf 09ad ef6e 66ad a2bf
00000570: 247e dbca c497 b13f e94b 1f65 11b4 ac3f
00000580: df1d 2138 b5e3 b6bf 5ce4 4ca9 0483 b33f
00000590: c507 b026 05cc b5bf 6602 b7a4 315a a1bf
000005a0: 98d1 43ae f1a0 acbf f5c0 5fdc bd8f aebf
000005b0: 35fe 67a4 8311 ba3f 3e86 d634 9dfe aebf
000005c0: 4eb4 3197 8fad b3bf 6ca1 f819 9860 b03f
000005d0: 5902 313a fdd3 b33f a694 fc42 110b a6bf
000005e0: e14c 5fa9 7bb5 a4bf badb 49e4 a13c b13f
000005f0: c91c ea8a 9fd7 b03f c974 dfdb 0e01 b4bf
00000600: 37da 9a7a 65ba 8abf 5279 427c e3fa a93f
00000610: 8a8b bdf6 b2f5 b33f 6f95 fc35 5a8c ae3f
00000620: b368 9789 922c b3bf b53f 3e79 45c3 b03f
00000630: fed1 42ff b8d6 b13f d5f3 a803 592c b0bf
00000640: 9547 84ed c657 aabf 5c00 86a9 5bbf b03f
00000650: c215 a460 a79d a2bf c1af beb4 c67f b23f
00000660: 8152 9250 67d0 87bf 7e29 889a db93 9cbf
00000670: b7da 5895 a89f a3bf 73ef ae4d f104 b0bf
00000680: 8b81 faec f8e1 a8bf 6c75 73f1 abf4 8ebf
00000690: 060f bccd 8f16 b23f d686 e1f7 da32 a73f
000006a0: fd9d 602d 7d4c ad3f ee81 ddc3 9e59 a63f
000006b0: 3410 7823 76aa ae3f 8aae 4acb 7769 ab3f
000006c0: 841a 37c7 06c4 b4bf fda1 508d c7ee b03f
000006d0: fba0 d15b efc1 a9bf ea06 5810 83d1 b13f
000006e0: 31b3 3d00 11a5 b03f 9bfc b59c d022 b03f
000006f0: ee3e 66a8 9bf7 9fbf 0988 d50b fb91 a83f
00000700: 293b 6506 624f b23f b357 b67c 395b a6bf
00000710: 8765 6b15 56b6 9d3f 8bc0 5d08 dc5c ac3f
00000720: f861 b648 9dbd b0bf 371f 6949 d267 b33f
00000730: 5325 fbc5 6f45 b43f 1164 01c0 617f b53f
00000740: 54f2 097d def0 9e3f 9c63 e63a 4842 843f
00000750: 7467 906f 37ab a6bf 60ca 4060 c876 b13f
00000760: 1a95 ef80 7824 b0bf 082c f900 99a8 a83f
00000770: ba20 6617 94ad a7bf c364 6391 cbc2 b03f
00000780: 2f7a 7f67 ba86 b7bf a488 0dba be15 b63f
00000790: 5a1d 10ef 9d93 97bf 25ba b700 d022 b1bf
000007a0: 1d55 442b 3a57 a7bf eaea 6db8 7446 b0bf
000007b0: 338d 4944 39eb afbf 1732 8afe 73d1 a8bf
000007c0: 9598 e80c a8ae b03f bbc8 1df4 ff19 aabf
000007d0: 6edd 4b07 9da7 b1bf 4350 33dc 81c5 993f
000007e0: 8c8a 9b5d 7c58 b4bf f37d 93ab 46c2 b03f
000007f0: cb8f ba44 416b b23f 7a2c 1a77 20df a6bf

policy_graph_hap0.weight_u f8 [1]
1.0
00000000: 0000 0000 0000 f03f

policy_graph_hap0.weight_v f8 [264]
-0.04750522021837186 0.07074419600329242 0.0718418070464063 0.09717434475342887 0.07111656422351438 0.06991192853741715 -0.06015427734111498 -0.057638033556421414
0.06497994070788488 0.007105706942047576 -0.0621110771738717 -0.05497342277959819 -0.07359678345731738 -0.05739455158240261 -0.06229740433496423 0.061287359648953925
-0.03091376337197852 0.06645088069454115 0.04813183715246457 -0.01367930006277034 -0.0395123312965915 0.09015546915933208 0.06166284787843576 0.0759206013292439
0.0766802796151875 0.05837415468319132 0.06405915593977575 0.07324811020671212 0.03413347136996824 -0.04521613250196696 0.08196327086696466 0.052047081694218136
0.07224412931541005 0.05090387936142334 0.07023574885311279 0.029923799346036346 0.05241134780784841 -0.04162800329425363 -0.0599186834789135 0.021574757574307765
-0.06413213957110374 -0.05552489590249039 -0.04092482250767705 0.08016759546814259 -0.07525942528601606 0.038065664537751495 0.058933950349287334 0.05895300866757824
-0.016855274475882847 -0.07427395261640565 -0.028179553355214253 0.07822636993359867 -0.058619342897507414 0.05786781959127749 -0.02646932293245982 -0.05047826951544712
0.08793517851522474 -0.04776057734748629 0.04653826899742198 0.005191167025040914 -0.03105212438672612 0.03214946514862774 0.04480378412673163 0.08438118088005757
-0.04417107901630183 0.07159980735413188 -0.05172452531841554 0.0554453527932907 -0.05328848986256823 0.08712604119624685 -0.06655706418448655 -0.03146644625721272
0.0634967014881705 0.05634882613756624 0.061613936158280286 0.08131451393950336 -0.07626247140807574 -0.052601231803884124 -0.06365899642382468 0.07858554116433075
-0.05865013640252293 -0.10217400152849458 -0.06948241877699039 0.03781820469811496 -0.05218434052880541 0.08953353654487524 -0.04795408300052766 0.08441231256788802
-0.024948797283267796 0.029848887232190917 0.06153702374236283 -0.06434824460780508 0.08166629964090605 -0.0960521068568975 0.06261161780152434 -0.06711904340282089
-0.04459102393041608 0.07956639281530585 0.07941609245170606 -0.05302993558861492 0.004264530558819701 -0.07414090507884638 0.07116103090895147 0.01317375611490948
-0.05090752719656823 0.05881482113582196 0.07198244277700068 0.05486365220355878 0.0852565697809579 0.07695778816506668 0.019919838048379778 0.09215190971022258
0.08363672351496591 -0.08038978196188842 0.06318182630905331 -0.05814434151589908 -0.03939207702548404 0.07043892395574136 -0.073009173211044 -0.07863191791569035
-0.03024721971157893 -0.07071284153437556 0.06936596893177649 0.055331879826168 0.05475068588075442 -0.0594223516170868 0.014508380729358188 -0.06290351239322146
-0.06216672470742972 -0.062235593111642784 -0.03749105437927241 -0.05470298501829677 0.1020248827456357 0.05802723519333046 0.07368983482036828 -0.054329842371127396
0.061301987218278904 0.07904501957563208 0.05874838698249557 0.020070243272510536 -0.09733613350586316 -0.025020636109877044 -0.045800105796528455 0.08256613971176148
0.0802508028357278 -0.007820003420394718 -0.061214635560450356 0.07114730616818003 -0.024813212656253213 -0.034380124036066245 -0.04921584538123566 -0.05904963524071668
0.07910021038168728 -0.10109519545210927 -0.05203496087986338 0.027570018758162815 -0.053567415608611266 0.047112560958083465 -0.03700099768969555 0.06634899115820186
0.04205279267627625 0.05902107403236636 -0.050804943714720975 -0.0693542070860995 -0.0756533145479758 -0.06375214150931116 -0.060051873707666494 0.09400024121391713
0.0444293673724208 -0.036960168632007954 -0.0680338475183799 0.02404803313322708 -0.030280386890705974 -0.03687797156531171 0.06942156605024412 0.05663153593457902
-0.09035795755816628 0.07700170675882939 -0.08604577411347406 -0.034264651093530045 -0.05651371130779055 -0.06032829224226244 0.10288663676190322 -0.06118236178959523
-0.07768242914542149 0.064629581600389 0.07825733826377408 -0.043519068411347304 -0.04088641865808102 0.06802064218361585 0.06646464930332524 -0.07896973925413006
-0.013193440922131339 0.05126636135534279 0.07876963687064707 0.06026931134587345 -0.07569392171103204 0.0661464877282647 0.07039762116843537 -0.06385005279183811
-0.052003029498544275 0.066089885159437 -0.03675700067425515 0.07300329856657774 -0.011765870495638979 -0.02822002776696464 -0.038745948379622634 -0.06324266268324492
-0.04912191157698708 -0.01528155149021687 0.07138284412838218 0.04577883137468896 0.05780835420123633 0.04410099036487247 0.060507847281729796 0.05409268841439873
-0.08197578557089066 0.06682235360586225 -0.05084815386468064 0.07031996435520263 0.06568519391426451 0.06368297308731119 -0.031564041180049754 0.04848406161025593
0.07225455431067518 -0.044136916046676626 0.029313066403423692 0.05596288295419299 -0.06608968174075042 0.07658190637425517 0.07999110333862645 0.08483787129414269
0.03052573383147361 0.009996237503615928 -0.044753294226529995 0.0689143346844693 -0.06372871462720531 0.0486591722865988 -0.04674509273057908 0.06614352129024902
-0.09287164950702334 0.0871556498544279 -0.02328657484884431 -0.06764724160926257 -0.046079077074377396 -0.06425252570433995 -0.06300625405576246 -0.04899437219823843
0.0658321854547499 -0.0515269559925399 -0.06969736979753988 0.025424603653335834 -0.08031765419028997 0.06614128337927898 0.07268927717423809 -0.045153877357618104
00000000: 9c51 74ae 9a52 a8bf d148 37a8 4a1c b23f
00000010: a8f6 bf83 3964 b23f a6e8 b9f8 6ae0 b83f
00000020: 953b 8bf5 b134 b23f 8a22 ab86 bfe5 b13f
00000030: 5d09 ca9b 8acc aebf 74db 427a bb82 adbf
00000040: b483 3c80 86a2 b03f 6999 e5ae df1a 7d3f
00000050: 97ba 5cea 05cd afbf e5a0 f9f9 7925 acbf
00000060: 9a3b 0a22 3dd7 b2bf a3ae 0794 d162 adbf
00000070: c11c 7d04 72e5 afbf cf6d b38a 0e61 af3f
00000080: 8a39 b78a dba7 9fbf 8d9a 5fc7 ec02 b13f
00000090: 1bb6 ee74 bca4 a83f dad2 3693 e403 8cbf
000000a0: a247 6ad5 f53a a4bf 4349 98c7 6d14 b73f
000000b0: dc3e 08d6 4592 af3f ed3f cd53 886f b33f
000000c0: 7e03 329d 51a1 b33f 0487 979a 37e3 ad3f
000000d0: a94c c54b 2e66 b03f dce5 d45d 63c0 b23f
000000e0: 4f47 773e f179 a13f 2cf2 b1a4 9126 a7bf
000000f0: 11c8 d87f 8bfb b43f 5233 7543 eaa5 aa3f
00000100: aad8 bc5c 977e b23f 5b95 31c2 1210 aa3f
00000110: 688d 5554 f8fa b13f b2cf 402e 58a4 9e3f
00000120: 7248 8c01 a9d5 aa3f 4e42 7e01 4450 a5bf
00000130: b130 ec63 a9ad aebf 4f99 cd78 b117 963f
00000140: f794 14c2 f66a b0bf 2aae 0758 c26d acbf
00000150: 42b8 872c 19f4 a4bf ba10 bc10 dd85 b43f
00000160: bab6 51a2 3344 b3bf 7e8e 94c0 577d a33f
00000170: 38a1 bf3a 972c ae3f 5fc3 74b8 162f ae3f
00000180: 5b5b 8e52 8242 91bf 269f 6e25 9e03 b3bf
00000190: 7b5e 4ed0 19db 9cbf d9b2 8cb4 a406 b43f
000001a0: b7cb 50c1 5a03 aebf 8d4e 45d1 d9a0 ad3f
000001b0: d863 5e31 c61a 9bbf 647d 74a9 49d8 a9bf
000001c0: 430c e47b eb82 b63f 60b6 7d0b 1374 a8bf
000001d0: 3177 b62e ddd3 a73f 4428 9c49 5543 753f
000001e0: 8368 d9ca 20cc 9fbf 1464 cb0a e575 a03f
000001f0: 176a 1f87 85f0 a63f db17 474c 019a b53f
00000200: 35ac 9b77 979d a6bf ba63 fc6e 5d54 b23f
00000210: 8095 4911 a37b aabf 36bb ec51 5563 ac3f
00000220: d708 6d02 a148 abbf 3d5d 9169 e44d b63f
00000230: fd79 fd3d e209 b1bf 1e30 31bb 5e1c a0bf
00000240: 45aa 4be0 5141 b03f 8690 dbda c0d9 ac3f
00000250: 9427 8ea1 dc8b af3f 0570 0f2a 07d1 b43f
00000260: 301d 9cf4 ef85 b3bf 346c a774 8cee aabf
00000270: c98b bcbb f44b b0bf 4c40 3d99 2e1e b43f
00000280: e171 8203 6407 aebf 8bfb 104b 1328 babf
00000290: 6b4d 4b8c 99c9 b1bf 7661 be60 e85c a33f
000002a0: e47c dee7 e7b7 aabf 6dff 5a7b abeb b63f
000002b0: c7d4 6404 708d a8bf e5da db99 0b9c b53f
000002c0: b9ea 9f71 2d8c 99bf bedf efe9 b490 9e3f
000002d0: 53e9 eee0 c781 af3f 8841 2566 2079 b0bf
000002e0: 7c9d 2426 15e8 b43f aa8a a9f1 de96 b8bf
000002f0: 8fa4 cea2 5007 b03f 859a 5ab0 b62e b1bf
00000300: 57dc f37a a2d4 a6bf 1f9f 008f 765e b43f
00000310: 442f dbef 9c54 b43f f2c9 1f5e bd26 abbf
00000320: 80da 8634 af77 713f 3e07 9cfa e5fa b2bf
00000330: 63eb 80fc 9b37 b23f 10a0 6e9d d7fa 8a3f
00000340: 42e6 db28 8d10 aabf c5cd 98ea f91c ae3f
00000350: 6508 9dfd 706d b23f 7a24 e8af 1617 ac3f
00000360: 8b75 fae2 5fd3 b53f be69 576f 81b3 b33f
00000370: f36e d6b3 dd65 943f 6027 787e 4497 b73f
00000380: 9bca 3d60 3769 b53f 4279 75bc 6c94 b4bf
00000390: 7eed b225 af2c b03f 3f38 845a 18c5 adbf
000003a0: fa88 17c5 322b a4bf f85d c10a 4908 b23f
000003b0: dcda 3fab bab0 b2bf 28a1 deab 3821 b4bf
000003c0: 191b d38d 20f9 9ebf ab20 cc9d 3c1a b2bf
000003d0: e06f 04d8 f7c1 b13f e926 8fcc 7554 ac3f
000003e0: 9633 952a 4808 ac3f d68f b141 9b6c aebf
000003f0: 690b 01e6 91b6 8d3f 794c 88d0 711a b0bf
00000400: 1623 0923 51d4 afbf 0893 1ffa 57dd afbf
00000410: 472f e708 0732 a3bf e558 4b97 0702 acbf
00000420: 384f c57e 4d1e ba3f e684 ddea beb5 ad3f
00000430: 40e3 9946 56dd b23f 6495 5c00 1fd1 abbf
00000440: f98b 905c f962 af3f 6330 fd5d 4b3c b43f
00000450: 18ad 90c1 4414 ae3f 6aac e939 4b8d 943f
00000460: 2374 2056 05eb b8bf c2a5 4477 029f 99bf
00000470: db4e 1989 1c73 a7bf d5a8 d1f5 0d23 b53f
00000480: ee3d a80d 518b b43f d4c6 8f17 ef03 80bf
00000490: 1e92 8953 8657 afbf 63da 30b9 b536 b23f
000004a0: b61d 7883 a268 99bf 6c12 bc88 459a a1bf
000004b0: 1cfd b6bc d132 a9bf eb32 66f8 c03b aebf
000004c0: 6b31 b250 e93f b43f ace1 3fee 5fe1 b9bf
000004d0: e28e 748e 53a4 aabf e968 aaa3 503b 9c3f
000004e0: c627 5734 306d abbf cf6f 1739 231f a83f
000004f0: 2f44 fe75 cbf1 a2bf 64a6 255b 3ffc b03f
00000500: ce09 8092 f187 a53f 73d4 7c9d 0238 ae3f
00000510: 8dae 7507 1b03 aabf df59 4683 32c1 b1bf
00000520: 6c4b d1ff 035e b3bf ce1b d572 0f52 b0bf
00000530: 5da1 4683 1ebf aebf 5f73 d459 6610 b83f
00000540: a66a b12f 72bf a63f b7e8 0e77 71ec a2bf
00000550: 4ecc 1c8e aa6a b1bf b480 5c2f 0ca0 983f
00000560: 788c 9f5d d201 9fbf b2b4 a163 abe1 a2bf
00000570: bba9 d29b 9cc5 b13f 9ec4 8505 cffe ac3f
00000580: 4c4b a5f8 b221 b7bf 44ee 4344 62b6 b33f
00000590: 7ac0 c689 1807 b6bf 3f0c b6e7 228b a1bf
000005a0: 2a62 af7b 5def acbf f078 6894 59e3 aebf
000005b0: 6f7a 1654 c756 ba3f 7eea f465 4b53 afbf
000005c0: b346 a7e4 fee2 b3bf efec 5373 908b b03f
000005d0: bdd1 8344 ac08 b43f db82 289f 2148 a6bf
000005e0: f95a f98d 10ef a4bf 23ad a101 cd69 b13f
000005f0: 640f 19c7 d303 b13f d65a 785f 5c37 b4bf
00000600: ad12 42aa 2905 8bbf 60ee cfa2 953f aa3f
00000610: 37f8 4636 3f2a b43f 02ae 5d82 9edb ae3f
00000620: f63e 4146 ad60 b3bf 00c5 89e9 f9ee b03f
00000630: ee76 a218 9405 b23f cabc 9620 7a58 b0bf
00000640: 9d74 fa1d 24a0 aabf 762e 5b47 44eb b03f
00000650: 1207 9747 d0d1 a2bf 89f4 d71b 58b0 b23f
00000660: 9ce4 e667 b418 88bf c0c1 6701 b6e5 9cbf
00000670: 1f35 494a 82d6 a3bf 3dbe efcf ab30 b0bf
00000680: aff6 7ad7 8126 a9bf df9b 0f1f ef4b 8fbf
00000690: c3e0 0665 2546 b23f 3fef 34af 5270 a73f
000006a0: b3b4 757d 0e99 ad3f b03a adae 6794 a63f
000006b0: a6e9 7372 e2fa ae3f 4f97 626f 09b2 ab3f
000006c0: 2e44 1776 5dfc b4bf 4c01 610f 451b b13f
000006d0: ac51 d2eb c408 aabf d256 293b 7d00 b23f
000006e0: 8774 b1af bed0 b03f 40d8 b8fe 864d b03f
000006f0: 6221 3279 2929 a0bf 9991 fc25 e7d2 a83f
00000700: 205c c043 467f b23f f7fc ee25 1d99 a6bf
00000710: 6356 3196 3e04 9e3f 4701 28c0 2aa7 ac3f
00000720: 64f8 addd 40eb b0bf 1dbf 572f df9a b33f
00000730: 8f73 cf04 4c7a b43f 72ac ab4a efb7 b53f
00000740: e066 f851 2342 9f3f d6e3 4949 e878 843f
00000750: 55b3 2e5e e7e9 a6bf 5905 b2ad 5ea4 b13f
00000760: a8d4 2369 8650 b0bf 6424 3ee3 dae9 a83f
00000770: 677a 0d09 f9ee a7bf 9fad c824 c8ee b03f
00000780: 9ab5 5bb9 6fc6 b7bf 2f51 c929 d54f b63f
00000790: 9a85 a595 6fd8 97bf 4d5b 6062 5451 b1bf
000007a0: cded 2042 ad97 a7bf eae5 9580 da72 b0bf
000007b0: 6aeb 9c88 2d21 b0bf bf18 8f54 ca15 a9bf
000007c0: 5167 8dcb 60da b03f 5466 b3bd bd61 aabf
000007d0: 84cc e5d3 afd7 b1bf 74c1 d144 e808 9a3f
000007e0: 64ea 09a2 b28f b4bf 738b 0799 a2ee b03f
000007f0: 16b5 3bb4 c39b b23f bfbe 13b5 681e a7bf

policy_graph_hap1.bias f8 [1]
0.04173404150258956
00000000: e55d c40e 2a5e a53f

policy_graph_hap1.weight_orig f8 [1, 264]
0.10080963167683071 -0.04822640730333925 -0.1045560484383235 -0.09979872194178614 -0.038112949526671824 -0.03361022327017562 0.04068889342954019 0.10704792068370879
-0.021674282401338438 0.04970071820361715 0.05456909434266132 0.08598570656708528 0.11545554621929098 0.11159280563927963 0.0624940296953435 -0.020925295245732663
0.08526735631815947 -0.028966455843247595 -0.06867192586201527 -0.028742690129062717 0.09387770054264416 -0.09778534301847933 -0.02312577555945816 -0.0039662038109692845
-0.04933297118070427 -0.020480514493437855 -0.016076088788869434 -0.05925749358339658 -0.04565345435711504 0.0430169855785388 -0.060230678141628836 -0.00555608553412141
-0.03237057650189918 -0.0058251747631976915 -0.01388830396060683 -0.001534288734950097 -0.037474403363398724 0.09144393151444652 0.1105972144747755 -0.02433730269697625
0.10666746142028757 0.11099021812915001 0.08633164139179617 -0.06498200918468697 0.08056825683925942 -0.0004776158376221185 -0.06829208547207777 -0.020442168812626206
0.06334249823132085 0.06643036511934884 0.07429148124704076 -0.024940840769174345 0.055843562411505454 -0.02077446533835866 0.07065125157985797 0.046255167987662674
-0.07597157334645642 0.10227171255244222 -0.037878783831314294 0.033060096407342844 0.07920661322846094 0.006679077206660075 -0.05998807276299791 -0.11261263389192877
0.049463835305732166 -0.05300350120360561 0.06910581469136866 -0.009047437794220617 0.07814964572439796 -0.062370662294723454 0.05996589463038032 0.08229932975900249
-0.026342366487022813 -0.016490452038294093 -0.023678759005893234 -0.07393889512466403 0.06282150076633033 0.04600726211320651 0.041512962681371286 -0.08467542288543789
0.06673360210200181 0.13337900033490038 0.09644294856568864 -0.0562808044092171 0.046428153436054026 -0.04148457708956051 0.04820101651854666 -0.06659183219561947
0.006380273821551882 -0.056707135608613866 -0.021053864305461346 0.06278053303113805 -0.025944492246128374 0.11300422608227063 -0.024007666234825645 0.1235343292015785
0.09461131733920226 -0.07218322038179567 -0.03133570050335632 0.0773373068293453 0.019265724432130874 0.06846586592950965 -0.02330898621541304 -0.03682661558025722
0.10939027240414623 -0.04373714923577727 -0.08109288094683374 -0.08269091994405078 -0.07472356989627456 -0.02864534826550382 -0.03617863178330665 -0.08237762930959425
-0.050496142808242356 0.07807351639536729 -0.008444417079763872 0.07625292142651634 0.09423252825327895 -0.10566443869334874 0.12641553786337942 0.08097632142293154
0.009763110145649597 0.1233439950334755 -0.026910620082279218 -0.013538481115242333 -0.01205627817516709 0.05564803766930217 0.03656090840521938 0.10224845202592758
0.11848555528661266 0.11109683925279146 0.03249200520377601 0.024667548585666253 -0.10327970003634968 -0.03141924878285451 -0.024616467351615354 0.053216982122025726
-0.030499884003696826 -0.036672984848774993 -0.020570566254347666 0.031398321984793885 0.12910753163890507 -0.0042065816912408545 0.10028256381999119 -0.031989190538929846
-0.07657272118191749 0.045783990406005656 0.10648914957125825 -0.08678457635150959 -0.0106755075348839 0.0784403899286791 0.0995716531268077 0.041982886620011095
-0.044317476289407694 0.10764210456095649 0.09414146774945571 -0.020072582280050166 0.06293015431445562 -0.0001936455121315684 0.0881014628243251 -0.021686437739793687
-0.016826167232758753 -0.0920475763334959 0.09385410385391119 0.05887049891400373 0.0665220365329956 0.10140311447856848 0.11913594717179324 -0.06649517186149262
-0.009413214367224768 0.01258581632246235 0.032900812021790224 -0.056631545719554637 0.08069343033961045 0.07896326887513286 -0.02212451664799328 -0.017906047187570922
0.11334502854379687 -0.06140790115836317 0.09028172844479809 0.09621946371812201 0.10715276877123088 0.03424318268315698 -0.1066095623690637 0.07903939076753809
0.07243887620963123 -0.02702993038653682 -0.10014489847655776 0.06700273937363586 0.09046122946413854 -0.027019223510810784 -0.029183694948013376 0.0625778334489633
-0.010223559533547047 -0.04441554997626055 -0.0646263694785147 -0.01756069543561644 0.10926148677199746 -0.02160242805360634 -0.03389682140239968 0.06930110585369177
0.08403229413789738 -0.026730252039946847 0.041555365591459024 -0.031546701888890076 0.06453241585700269 0.07328058733637209 0.08680377712252547 0.05020944329537342
0.1029451765557083 -0.011516329867487983 -0.040821092386169884 0.0027509636810673804 -0.0199822094999223 -0.025102062150644054 -0.012129264460153479 -0.06151327693298819
0.10860803282764603 -0.029026985482167512 0.0978140129581587 -0.060813376341758464 -0.027957656650574078 -0.06541387685267194 0.08466418869803531 -0.0397947475482767
-0.027566812684894252 0.09356637219475206 -0.02774077392353388 -0.014392644324899754 0.05595327099092795 -0.058601998003037385 -0.027800646410923103 -0.06013385769190246
-0.048961028795192006 0.0361932098102327 0.09259232617013446 -0.02385570088173898 0.11124632038238429 -0.06995632907759235 0.03954471888732507 -0.028376048246759513
0.11389676603486928 -0.0685068264828448 0.06507604985647719 0.06394147093204673 0.08744148379266846 0.11624796513352838 0.06196969418006406 0.09854794594218681
-0.025420048076922146 0.0709195980718026 0.05121988450564103 -0.050642939291143906 0.08309482212052312 -0.06587057893719425 -0.040326327201694906 0.10252940385004602
00000000: bc7d 2cf7 a8ce b93f 0dc4 57b4 21b1 a8bf
00000010: 543f a468 2fc4 babf 7d2d ecb6 688c b9bf
00000020: b8d4 8a5f 8a83 a3bf 4369 83f3 5b35 a1bf
00000030: 613c 2eb5 2cd5 a43f 15fb 7016 7e67 bb3f
00000040: ace3 4f78 c831 96bf 0764 8b5e 5f72 a93f
00000050: 5fec 25f7 7af0 ab3f a10b a1c5 2803 b63f
00000060: ff56 27a3 7e8e bd3f ff88 b09a 5891 bc3f
00000070: b637 79ab 37ff af3f cf50 f5ca 706d 95bf
00000080: 2589 cdda 14d4 b53f 7371 1cf2 61a9 9dbf
00000090: a50e bbbb 7b94 b1bf 1fde 6948 b96e 9dbf
000000a0: b482 a775 5e08 b83f fae1 4ad2 7508 b9bf
000000b0: 60d9 e386 48ae 97bf b6a4 84ba dd3e 70bf
000000c0: 65d8 abd3 2b42 a9bf b17a d10f d8f8 94bf
000000d0: d915 620e 4076 90bf cd9c f789 ff56 aebf
000000e0: e893 d3ba e35f a7bf abf3 7684 5206 a63f
000000f0: fd1b ab31 8ed6 aebf c9f3 9a5a fac1 76bf
00000100: 294d db4e e092 a0bf 2469 9f71 23dc 77bf
00000110: 8d32 769a 7871 8cbf 0760 1cfc 4523 59bf
00000120: c50c c451 d82f a3bf a8af 4597 de68 b73f
00000130: dca6 325b 1950 bc3f 4d1e a0bc e0eb 98bf
00000140: 3ef4 580a 8f4e bb3f 2165 0add da69 bc3f
00000150: 8844 6398 d419 b63f 66cf 4634 a9a2 b0bf
00000160: b268 380c 1fa0 b43f 8653 1367 104d 3fbf
00000170: 389f ad11 977b b1bf 0ac5 09ba caee 94bf
00000180: ceb7 59c6 3637 b03f 1721 a695 9401 b13f
00000190: efd2 533a c404 b33f 1dde c07d 178a 99bf
000001a0: 20c5 7f04 8797 ac3f 566b e1c4 e645 95bf
000001b0: 38fb f44e 3316 b23f aa55 8ee3 c1ae a73f
000001c0: b7dd f27e df72 b3bf 94f9 b79c 7a2e ba3f
000001d0: 5416 8913 d964 a3bf bd89 bec1 40ed a03f
000001e0: fb72 7175 e246 b43f 1695 b822 855b 7b3f
000001f0: f393 55b5 c1b6 aebf 48a8 ae7b 2ed4 bcbf
00000200: 5f19 f2e5 5253 a93f 3c68 7c60 4623 abbf
00000210: e717 102e ebb0 b13f db9a 828b 7687 82bf
00000220: ef8c 947c 9d01 b43f f346 9225 0cef afbf
00000230: e82f a088 d9b3 ae3f d331 cca1 9111 b53f
00000240: 3f79 3e4a 7ef9 9abf 148c cd80 dfe2 90bf
00000250: 2324 299e 3e3f 98bf 727a 76d0 a8ed b2bf
00000260: 4aeb 46e3 1115 b03f b237 4f8c 438e a73f
00000270: a132 27e2 2f41 a53f 9463 11dc 49ad b5bf
00000280: 2587 920e 7415 b13f 55ae 3426 9012 c13f
00000290: 34fa 042e 7cb0 b83f bd0a a96c d6d0 acbf
000002a0: 2438 3e51 6ec5 a73f ebae c66b 773d a5bf
000002b0: bc87 29bb cdad a83f e7fd 758d 290c b1bf
000002c0: c90e 73b6 3322 7a3f 3315 c7b9 b708 adbf
000002d0: 2de4 95ea 248f 95bf 27b6 3190 6212 b03f
000002e0: 1e73 d566 3191 9abf d548 554f d8ed bc3f
000002f0: 01d3 5335 7795 98bf d2a4 da1f f29f bf3f
00000300: 71a8 cd81 7238 b83f 161a dc7a 997a b2bf
00000310: a0e4 b7a1 3b0b a0bf d3be 97b3 60cc b33f
00000320: d19f 7ae1 64ba 933f a03f 0f9f fa86 b13f
00000330: 8c11 fe95 4fde 97bf 5d42 142b f0da a2bf
00000340: 60f1 793a 0001 bc3f c905 2d33 b764 a6bf
00000350: 07e6 9ac7 80c2 b4bf 6afa d56c 3b2b b5bf
00000360: f5e2 f178 1521 b3bf 4675 eec7 3455 9dbf
00000370: 478b a570 0186 a2bf 1885 ce47 b316 b5bf
00000380: f4ff de63 a1da a9bf 0711 9a3f a0fc b33f
00000390: d0ec 8779 4e4b 81bf 2b58 c0bb 4f85 b33f
000003a0: ed35 117b 9f1f b83f e0c2 891c d30c bbbf
000003b0: e32b 6a64 622e c03f 400a 433c ddba b43f
000003c0: 5132 4376 aefe 833f c9a6 d3d8 7893 bf3f
000003d0: 6b83 ac24 758e 9bbf ef13 052d 10ba 8bbf
000003e0: c662 ca43 f6b0 88bf 12a1 c04b e67d ac3f
000003f0: 1b2f d383 1cb8 a23f 989a 845d f42c ba3f
00000400: 7120 01c1 1155 be3f f89a 47ab d770 bc3f
00000410: bb9e 76c7 caa2 a03f 89ad ca29 7342 993f
00000420: 102f ffd5 8970 babf 8f78 f90b 2f16 a0bf
00000430: 397a df28 0f35 99bf 2da1 9c9b 413f ab3f
00000440: 1889 4f91 5c3b 9fbf 5df6 242d cdc6 a2bf
00000450: 105e 4a55 7310 95bf 13df 25dc 7013 a03f
00000460: 8b37 0779 9886 c03f dd57 abac eb3a 71bf
00000470: e544 f73b 1eac b93f 0864 611e e360 a0bf
00000480: c8f7 3d15 459a b3bf aec6 f2ca ff70 a73f
00000490: 7b93 c976 df42 bb3f 4f19 3a95 8337 b6bf
000004a0: 071f d85d 0add 85bf badd 6d5d ab14 b43f
000004b0: b7cd c921 877d b93f 789b 0cea c77e a53f
000004c0: 29c8 9bbe c7b0 a6bf 3a0d c3d6 6e8e bb3f
000004d0: 056d 2ebd a719 b83f 639f c131 e88d 94bf
000004e0: 627b b6ca 301c b03f 69b6 8248 aa61 29bf
000004f0: a26b 8f45 d18d b63f 14c6 6f33 f834 96bf
00000500: 7e49 edf7 e03a 91bf 1747 0712 6e90 b7bf
00000510: 24df a592 d206 b83f ccd7 1127 4624 ae3f
00000520: 585e 5f93 9607 b13f 0ce3 65f4 8df5 b93f
00000530: 727e e184 b17f be3f b4ac 7cdc d305 b1bf
00000540: 0818 dc3e 3c47 83bf 79cd fcab 97c6 893f
00000550: 2676 4a0f 60d8 a03f 2f28 9359 cffe acbf
00000560: cb88 4f1c 53a8 b43f 4a69 67d1 ef36 b43f
00000570: b891 c52d cfa7 96bf bbf5 487c f655 92bf
00000580: dd81 c206 2e04 bd3f 14e1 613e db70 afbf
00000590: 50c5 180f b41c b73f 3472 e8b9 d6a1 b83f
000005a0: 855c 8c25 5d6e bb3f b360 788b 5288 a13f
000005b0: 6fe5 d0a7 c34a bbbf 393d 71ee ec3b b43f
000005c0: 0b84 47ac 5a8b b23f 6be4 17ec bbad 9bbf
000005d0: 1b6c d197 18a3 b9bf 4f28 5a6e 1727 b13f
000005e0: b4bb 1a96 7728 b73f e675 5e65 edaa 9bbf
000005f0: d13b 839d 54e2 9dbf 412a 1ed4 1905 b03f
00000600: 4829 c3ee 16f0 84bf d5ed 298d a2bd a6bf
00000610: 2d93 5e8f 5a8b b0bf 3e2c 5d52 6efb 91bf
00000620: a2e7 6590 8ff8 bb3f de89 0468 f21e 96bf
00000630: 6e2b b996 ec5a a1bf 99de 379f b7bd b13f
00000640: a94f 21f3 2383 b53f 0438 4dd9 2c5f 9bbf
00000650: 7395 60b0 be46 a53f afa2 d1a9 e326 a0bf
00000660: 3340 a347 3285 b03f 8798 0a3e 84c2 b23f
00000670: d517 e9b7 c538 b63f 79d8 ce59 0db5 a93f
00000680: 5d74 9676 9d5a ba3f 4cdb 34a1 df95 87bf
00000690: 6939 9291 80e6 a4bf a589 5d61 3089 663f
000006a0: 5048 3761 3776 94bf e627 ffdf 5ab4 99bf
000006b0: b478 7251 3ad7 88bf f8d9 6411 ab7e afbf
000006c0: d4df 136d bccd bb3f 9ab6 6305 40b9 9dbf
000006d0: 86ed bed2 560a b93f a529 184d ee22 afbf
000006e0: 6cb3 f293 eea0 9cbf 8e6b c9bd f6be b0bf
000006f0: 13b6 9961 8dac b53f 3d7b 8b26 fa5f a4bf
00000700: 810e bf7b 793a 9cbf 68f2 943c f7f3 b73f
00000710: 17b9 11d3 1368 9cbf 4f5f 6d05 e479 8dbf
00000720: f040 053a e8a5 ac3f b77d cec1 1401 aebf
00000730: 0dff 91cc c577 9cbf 4b8c 5670 ddc9 aebf
00000740: db60 e882 6b11 a9bf 45c6 f198 ea87 a23f
00000750: 10e4 c274 21b4 b73f 6cdf 70fc a06d 98bf
00000760: cbb9 d78b a37a bc3f 4b56 8971 a8e8 b1bf
00000770: 867e b394 343f a43f 5794 d65c 9c0e 9dbf
00000780: de6b 3da5 5628 bd3f b1eb 4bd3 a989 b1bf
00000790: 68ed e2f1 d2a8 b03f f1e2 82de 775e b03f
000007a0: 8f06 34a9 9062 b63f 0d9d 7938 6dc2 bd3f
000007b0: 0368 b1e3 7dba af3f 05e0 e82c 703a b93f
000007c0: abcd 9c8c b607 9abf b925 5d6a c927 b23f
000007d0: 9997 b621 7e39 aa3f cbbb 0e10 dfed a9bf
000007e0: 597e 79c7 b345 b53f 2ec8 4dee e4dc b0bf
000007f0: bc86 ff00 a7a5 a4bf 2611 6af4 5d3f ba3f

policy_graph_hap1.weight_u f8 [1]
1.0
00000000: 0000 0000 0000 f03f

policy_graph_hap1.weight_v f8 [264]
0.09214193073896312 -0.04405656869536846 -0.09553966118763559 -0.09119215311534765 -0.03481092550767155 -0.030694470067938868 0.03719072486266528 0.09784467839267878
-0.01978655865648923 0.04541742248762449 0.04987589035560313 0.07859142235179514 0.10552795805159944 0.10199753298114915 0.05711861958282814 -0.019102820630627765
0.07792974758041563 -0.02645006985476509 -0.0627439430906047 -0.026263123850348544 0.08580246920374021 -0.08935204427516251 -0.021113224100297544 -0.003614247477292815
-0.045067725710902944 -0.018696658003029595 -0.014673860626036667 -0.05413987716870967 -0.04170839798920459 0.03931886771862165 -0.05502961694064022 -0.005066153658121358
-0.029561746426898426 -0.00531182353228919 -0.01267487764086583 -0.0013948905673954474 -0.034227613725507394 0.08358164098275872 0.10109033785645384 -0.022221664439136788
0.09749461766614807 0.10144811117133472 0.07891166562218017 -0.059372217894041485 0.07363684993063298 -0.0004282532332544205 -0.06239657243119908 -0.01866096748461502
0.05788824910296196 0.06071563311180895 0.06790070412665412 -0.02277078257614286 0.05104067285428204 -0.01896521145528573 0.06457030297242328 0.04227814131116147
-0.06941650184354128 0.0934778056420207 -0.03459619076242838 0.03020913963930612 0.07239350235471108 0.006107757519458471 -0.05480652666350219 -0.10290283012541954
0.04521098086378209 -0.048422470050347916 0.06316253023079733 -0.008254176975934578 0.07142862112388484 -0.05698490714202044 0.05480792306194136 0.07521896403740978
-0.024052600271615838 -0.015052187159092461 -0.021618613130109356 -0.06755866662726237 0.057417491605724034 0.04205147419695581 0.03794378343164893 -0.07737064641741427
0.06099353404601812 0.1219041405392602 0.08814654126862723 -0.0514175861572361 0.042436191049487565 -0.03789306861858255 0.04405660669546581 -0.060843055148497124
0.005837078699073931 -0.051809292818343115 -0.019219766834618155 0.057380343310622764 -0.02368837582209047 0.10328205517015111 -0.02191831235601429 0.1129123554246579
0.08647734378518174 -0.06595420423400504 -0.02861618126216734 0.07068617337385284 0.017602513094745042 0.06257607074384446 -0.02128086419755834 -0.03364498255417274
0.09998238290287145 -0.039951836652376366 -0.07409639803879282 -0.07555631759554665 -0.06827579976401 -0.026156388388649678 -0.03304243348158927 -0.07527098687626717
-0.04613142630074627 0.07135621874091215 -0.00770430293351025 0.06969405432737436 0.0861273141006539 -0.09655279097806388 0.11554405512312907 0.0740093650455516
0.008928524624259563 0.1127383433602204 -0.024571572054545035 -0.012356317474384055 -0.011001943472952257 0.05086205383008299 0.0334086918297857 0.09345639051386534
0.1082986201649319 0.10154604863735386 0.02970021934816704 0.02254911922249408 -0.0943735486517224 -0.02869259285769189 -0.022474981880367745 0.04864046552290809
-0.027851906977981115 -0.03349435174416829 -0.018778050424514043 0.028690826654616378 0.11800076139429766 -0.0038388297158397284 0.09165902434024359 -0.029212645091718472
-0.06996528505304345 0.04183944522573244 0.09733343768988592 -0.07929797508170763 -0.009750870221931343 0.07169813590986802 0.09101129137272783 0.03837329853332004
-0.040483216285657535 0.0983796092037213 0.08605009321984139 -0.018325679447059613 0.05751781309909892 -0.00016955946303846104 0.08052493645758052 -0.01979757509724509
-0.015358565053971481 -0.08410793943841319 0.0857883213221264 0.05380674861114701 0.060799386793317145 0.09268302301605041 0.10889064603500959 -0.06075506010991153
-0.00858879687863185 0.011508026137205835 0.030073216297992377 -0.0517409127348807 0.07375118579615952 0.07217879362135941 -0.02019889262710359 -0.016345151244210383
0.10359376540437289 -0.05610559882608976 0.08251387813600446 0.08793900674352538 0.09794144575130997 0.031300099469833934 -0.09741673637680287 0.07224047825637188
0.06620699030906547 -0.02468020034582384 -0.09150852355283279 0.0612419696008901 0.08268415782202283 -0.024670897511746406 -0.026648408151467937 0.05719479289402616
-0.0093381794797435 -0.04057175603929254 -0.05904713591120813 -0.016029273149336394 0.099861812786146 -0.01972066941824304 -0.03095699373597537 0.06333975330673319
0.0768070525751419 -0.024406919807253104 0.03798358020248343 -0.028808068980997085 0.05897400370553932 0.06697810519952216 0.07934436313664919 0.04589144990277397
0.09409401085229635 -0.010519191739766679 -0.03728717529338938 0.002520312322112343 -0.018241206633343526 -0.022917911126545665 -0.011068704829597346 -0.05620055415207539
0.09926398028839581 -0.02650555423264166 0.08940732613442012 -0.05556199749257686 -0.02552767364156391 -0.05976664993943587 0.0773800593719269 -0.036348199354196684
-0.025170890119604872 0.08552344278335257 -0.02533080788719921 -0.013137069330021579 0.051140712077316755 -0.053540869938389794 -0.025384273230542733 -0.05494061209389596
-0.04472835160294393 0.033073177446069656 0.08463377709693007 -0.021779416575113134 0.10168106986207538 -0.06391775455001777 0.03614544666009473 -0.02591027524049043
0.10409520927870623 -0.0625938882054625 0.05947624934513029 0.058451934657090775 0.07992894356339815 0.10625433495625658 0.05663939159851069 0.090076798664361
-0.02320864871777445 0.06482038714274165 0.04681479770799269 -0.04626673088475087 0.07594568145643944 -0.06018394559507556 -0.036834502015067876 0.09371041392559354
00000000: 8638 1d13 9d96 b73f 82f0 7023 958e a6bf
00000010: b195 4588 4975 b8bf 0e41 4873 5e58 b7bf
00000020: 76a8 32d5 bcd2 a1bf 157c 7004 5f6e 9fbf
00000030: 40d6 ffa5 a90a a33f e3c0 c84d 590c b93f
00000040: 57ed 5179 ed42 94bf 4184 81d0 f340 a73f
00000050: 3f55 df2b 5589 a93f de40 bf44 911e b43f
00000060: 0931 a558 e103 bb3f 533d 6da4 821c ba3f
00000070: beaa 33d6 a63e ad3f 28c7 7a97 b08f 93bf
00000080: ca50 3e35 34f3 b33f ea34 0324 ba15 9bbf
00000090: afa2 98af fc0f b0bf b9b7 1c68 b8e4 9abf
000000a0: 8e67 258f 26f7 b53f df18 fe8b c6df b6bf
000000b0: 7378 187c b49e 95bf 5b31 de56 a09b 6dbf
000000c0: 471d 11f0 1d13 a7bf 6c87 ab7a 3725 93bf
000000d0: aa88 f53b 540d 8ebf a9b8 b2d3 38b8 abbf
000000e0: 4414 aa9a cd5a a5bf c938 ef45 9a21 a43f
000000f0: 0e96 248a d72c acbf 0645 7344 3fc0 74bf
00000100: 36f6 7638 6f45 9ebf 6e23 a7c5 d9c1 75bf
00000110: fe28 9647 49f5 89bf 07e3 9457 98da 56bf
00000120: 0c71 2423 4886 a1bf 6c24 913e 9b65 b53f
00000130: b1f9 086f 0ee1 b93f 2978 1da8 46c1 96bf
00000140: 5781 6942 68f5 b83f 7bcb b8df 80f8 b93f
00000150: 3dc2 1e0f 8e33 b43f a4b2 4a0c 0966 aebf
00000160: fd86 3b56 ddd9 b23f 188d 98a1 e510 3cbf
00000170: 0bf1 f28b 71f2 afbf 4989 3b54 dc1b 93bf
00000180: be99 7051 87a3 ad3f 516e 2495 1e16 af3f
00000190: 1d6f 99c7 f061 b13f e41c e059 3951 97bf
000001a0: 8096 59c9 0022 aa3f de44 d9cb 9d6b 93bf
000001b0: d832 8feb ad87 b03f ffc1 8804 7ba5 a53f
000001c0: fe81 38a5 47c5 b1bf 0163 2256 29ee b73f
000001d0: e217 c887 97b6 a1bf 951a 2a0b 25ef 9e3f
000001e0: 1f6f 0e6d 6188 b23f 847e c4ac 7204 793f
000001f0: 7412 41df 990f acbf 0ef5 0d02 d757 babf
00000200: f5c5 75c8 e425 a73f 3cfc 837a d4ca a8bf
00000210: c983 ac69 6b2b b03f 8c16 56e1 90e7 80bf
00000220: c2b7 b967 2549 b23f 32c6 1431 202d adbf
00000230: beb6 39ba c80f ac3f 9765 94ce 8c41 b33f
00000240: 258f 33ae 3ea1 98bf e30f a75c aed3 8ebf
00000250: dac8 8391 3023 96bf a6b7 b957 864b b1bf
00000260: eb72 5451 d365 ad3f c759 d954 c587 a53f
00000270: 1dd3 d919 5e6d a33f 157e 080c 90ce b3bf
00000280: 1c7f fd63 8b3a af3f cdf4 dc18 1c35 bf3f
00000290: ba17 0190 c590 b63f 5c1c f8e5 6753 aabf
000002a0: ecde 7249 32ba a53f a07d ec64 b866 a3bf
000002b0: 8a09 dc69 968e a63f c660 1a28 d226 afbf
000002c0: 9d01 dee1 9ee8 773f 5f3d 9164 bf86 aabf
000002d0: 8939 f7b7 58ae 93bf fa9d e7d3 f460 ad3f
000002e0: ba10 cefd c341 98bf f92e 3859 b170 ba3f
000002f0: 06a8 020b c171 96bf e5fc dcf9 d2e7 bc3f
00000300: 6cfd 6613 6123 b63f 6b00 38ee 5fe2 b0bf
00000310: da31 a16a 8f4d 9dbf 9f8a eb32 7d18 b23f
00000320: 8301 47a8 6406 923f fb63 5b41 fc04 b03f
00000330: 7859 099f a6ca 95bf 6644 7d47 ea39 a1bf
00000340: a275 be08 7298 b93f 2497 ac2f 9174 a4bf
00000350: b5f8 5346 fbf7 b2bf 6c3d 14a9 a857 b3bf
00000360: 213c 18d7 857a b1bf 2ac8 d782 bdc8 9abf
00000370: 7b0b 5e16 f0ea a0bf 65a1 f89a f544 b3bf
00000380: cd1f 8fce 899e a7bf b9c2 dbb1 6644 b23f
00000390: 2eda 3412 8c8e 7fbf e4cc 0f34 78d7 b13f
000003a0: e9c8 5a8d 700c b63f 5e9b 9607 afb7 b8bf
000003b0: 8245 0092 4b94 bd3f 13e7 771a 47f2 b23f
000003c0: d50f 1a4a 1e49 823f fac3 bc89 6bdc bc3f
000003d0: 14d5 8a49 4a29 99bf ca9d 9cdb 444e 89bf
000003e0: 8629 45db 2f88 86bf 7c7d 9d53 970a aa3f
000003f0: d444 9fad f11a a13f 38f8 db0c c2ec b73f
00000400: 6370 cf57 75b9 bb3f 527a effd ebfe b93f
00000410: c53a 23fb bb69 9e3f 4ff5 74c6 1d17 973f
00000420: 860d 1169 dd28 b8bf a34c d84f 9761 9dbf
00000430: b513 9e80 ae03 97bf 0bc0 5d31 67e7 a83f
00000440: 5e1a 68d6 3585 9cbf 9410 aff2 2b26 a1bf
00000450: 75de d2a1 8d3a 93bf 7406 b5c8 2061 9d3f
00000460: 9c73 1743 4c35 be3f 2dc5 b302 9c72 6fbf
00000470: 84b3 ec3f f776 b73f 77c0 316d ebe9 9dbf
00000480: d07b 28b3 3ee9 b1bf 9dc7 dad1 fa6b a53f
00000490: ba70 af1b d8ea b83f d66d 9d41 df4c b4bf
000004a0: 0896 afa5 43f8 83bf 8dc3 ea1c cf5a b23f
000004b0: 4b39 0318 844c b73f 9e02 7b3c aaa5 a33f
000004c0: cfb3 f753 37ba a4bf e48c 1ff4 672f b93f
000004d0: a26c 3200 6107 b63f 35c0 9b87 f7c3 92bf
000004e0: 7769 658c f972 ad3f f2a4 6bb2 7839 26bf
000004f0: 8808 9940 489d b43f 19c2 54c6 d045 94bf
00000500: be5d f6b4 4f74 8fbf 9ed0 3811 1988 b5bf
00000510: cd0f 7532 39f6 b53f 748d 2de3 8e8c ab3f
00000520: 38ce c9e3 1821 af3f fc93 bf18 13ba b73f
00000530: 9c88 8fe3 41e0 bb3f b527 7a88 491b afbf
00000540: a44b a5cd 0097 81bf 10dd 341f 8591 873f
00000550: b30f f161 83cb 9e3f 427d 1ff0 c87d aabf
00000560: 4425 0993 5be1 b23f 6387 1136 4f7a b23f
00000570: 19cc febc 04af 94bf 1211 2b88 c8bc 90bf
00000580: 0535 7bfa 1e85 ba3f 0c3e 2980 dfb9 acbf
00000590: c36d 0f28 a11f b53f 0794 01b6 2b83 b63f
000005a0: f4c1 6cca b012 b93f 7241 2b0f 9106 a03f
000005b0: b448 d2a0 4df0 b8bf edfa 8e1b 5a7e b23f
000005c0: d5de 24fa f0f2 b03f 5c4c 6035 c445 99bf
000005d0: 20f4 f643 1a6d b7bf 7d2a 2881 1b5b af3f
000005e0: 152e bef9 c92a b53f 3457 e7e7 5343 99bf
000005f0: f909 0166 b849 9bbf 9d71 f6c9 a248 ad3f
00000600: d2e5 c13b e51f 83bf 92fc a83a d2c5 a4bf
00000610: 7f7c 521b 6d3b aebf d2f8 d14f fa69 90bf
00000620: 5628 0934 8b90 b93f 068a d3b8 a731 94bf
00000630: 5dc6 b6ae 30b3 9fbf 6c37 fdb8 0837 b03f
00000640: 3292 e982 a0a9 b33f aa15 79a9 20fe 98bf
00000650: b762 8275 9572 a33f 8184 89c8 dc7f 9dbf
00000660: a47d 7532 d731 ae3f 5e47 6123 7a25 b13f
00000670: 2a3a cb84 e94f b43f 1433 ff88 157f a73f
00000680: 542e 5c8b 8b16 b83f 026e 0504 168b 85bf
00000690: d901 e4fc 4d17 a3bf d644 f95f 7aa5 643f
000006a0: 881a b8a7 d2ad 92bf 4de5 1ffb ca77 97bf
000006b0: 4f80 046a 30ab 86bf c352 33ac 51c6 acbf
000006c0: 3a6b 023d 5d69 b93f 5dbf 5da2 4524 9bbf
000006d0: ee27 c505 66e3 b63f 3319 4344 9f72 acbf
000006e0: b7e1 bb2d ed23 9abf 4841 c3fd bb99 aebf
000006f0: 4d6e 5df8 2dcf b33f 9651 fd2e 3b9c a2bf
00000700: 0de9 7fd7 65c6 99bf 49bb cb45 dde4 b53f
00000710: ffbd d3bd 51f0 99bf c710 1a99 9be7 8abf
00000720: 3282 bb8b 1d2f aa3f 0f01 c57a b569 abbf
00000730: c77f 6ebd 55fe 99bf 1abd 5408 2d21 acbf
00000740: 5a61 ad6e a2e6 a6bf b3e7 02af f7ee a03f
00000750: 3ead c428 8faa b53f 940e aae7 574d 96bf
00000760: 410e ae45 c507 ba3f ae13 6df9 e95c b0bf
00000770: d8dc 9bee a781 a23f ec2e 2723 3988 9abf
00000780: b3b6 85cf fba5 ba3f f69d c52e 2706 b0bf
00000790: 6ff3 a6c3 ab73 ae3f d3f2 7a77 69ed ad3f
000007a0: d5ce 9b26 3976 b43f 9002 b2ed 7b33 bb3f
000007b0: 0b71 299d d6ff ac3f 764d 64e8 450f b73f
000007c0: 70a5 e80c 02c4 97bf e962 e4a2 1198 b03f
000007d0: a1d6 3ff2 1bf8 a73f e1ee 15e0 45b0 a7bf
000007e0: 31ba 201a 2d71 b33f 9072 261c 6ed0 aebf
000007f0: afcf 09cb f8db a2bf 60e4 1adb 67fd b73f

policy_done.bias f8 [1]
-0.025475277162475076
00000000: b7d4 13e9 3016 9abf
